ST Edge AI Core v2.1.0-20194 329b0e98d
Created date          : 2025-06-24 12:00:43
Parameters            : generate --model C:\Users\drugm\stm32ai-modelzoo-services\text_generation\src\experiments_outputs\2025_06_24_11_44_44\quantized_models\quantized_model.tflite --target stm32 --output deployment\c_project\Middlewares\ST\AI

Exec/report summary (generate)
----------------------------------------------------------------------------------------------------------------------------------------------------------------------
model file         :   C:\Users\drugm\stm32ai-modelzoo-services\text_generation\src\experiments_outputs\2025_06_24_11_44_44\quantized_models\quantized_model.tflite   
type               :   tflite                                                                                                                                         
c_name             :   network                                                                                                                                        
compression        :   lossless                                                                                                                                       
options            :   allocate-inputs, allocate-outputs                                                                                                              
optimization       :   balanced                                                                                                                                       
target/series      :   stm32                                                                                                                                          
workspace dir      :   C:\Users\drugm\stm32ai-modelzoo-services\text_generation\st_ai_ws                                                                              
output dir         :   C:\Users\drugm\stm32ai-modelzoo-services\text_generation\deployment\c_project\Middlewares\ST\AI                                                
model_fmt          :   sa/sa per tensor                                                                                                                               
model_name         :   quantized_model                                                                                                                                
model_hash         :   0xb547d7a78f99968df5d62d3a153468d0                                                                                                             
params #           :   2,167,877 items (2.07 MiB)                                                                                                                     
----------------------------------------------------------------------------------------------------------------------------------------------------------------------
input 1/1          :   'serving_default_input_10', int32(1x100), 400 Bytes, activations                                                                               
output 1/1         :   'eltwise_361', int8(1x100x66), 6.45 KBytes, QLinear(0.030961249,24,int8), activations                                                          
macc               :   8,411,143,898                                                                                                                                  
weights (ro)       :   2,171,264 B (2.07 MiB) (1 segment) / -6,500,244(-75.0%) vs float model                                                                         
activations (rw)   :   550,828 B (537.92 KiB) (1 segment) *                                                                                                           
ram (total)        :   550,828 B (537.92 KiB) = 550,828 + 0 + 0                                                                                                       
----------------------------------------------------------------------------------------------------------------------------------------------------------------------
(*) 'input'/'output' buffers can be used from the activations buffer

Model name - quantized_model
------ ------------------------------------------------ ----------------------- ----------------- --------------- -------------------------------- --- --------------- ---------------------- ----------------------------------------------------------------------------- 
m_id   layer (type,original)                            oshape                  param/size                   macc                     connected to   | c_size          c_macc                 c_type                                                                        
------ ------------------------------------------------ ----------------------- ----------------- --------------- -------------------------------- --- --------------- ---------------------- ----------------------------------------------------------------------------- 
0      embedding_embeddings (Placeholder, )             [b:66,c:256]            16,896/16,896                                                        |                                        Gather_[8]                                                                    
       serving_default_input_10 (Input, )               [b:1,c:100]                                                                                  |                                        
       gather_0 (Gather, GATHER)                        [b:1,h:100,c:256]                                                     embedding_embeddings   |                                        
                                                                                                                          serving_default_input_10   | 
------ ------------------------------------------------ ----------------------- ----------------- --------------- -------------------------------- --- --------------- ---------------------- ----------------------------------------------------------------------------- 
1      tiny_bert_generato..iply_Mul_y (Placeholder, )   []                      1/1                                                                  |                 +25,600(+100.0%)       Eltwise/mul_[9]                                                               
       eltwise_1 (Eltwise, MUL)                         [b:1,h:100,c:256]                                  25,600                         gather_0   |                 -25,600(-100.0%)       
                                                                                                                    tiny_bert_generato..iply_Mul_y   | 
------ ------------------------------------------------ ----------------------- ----------------- --------------- -------------------------------- --- --------------- ---------------------- ----------------------------------------------------------------------------- 
2      tiny_bert_generato..rs___add_y (Placeholder, )   [b:1,h:100,c:256]       25,600/25,600                                                        |                 +25,600(+100.0%)       Eltwise/add_[10]                                                              
       eltwise_2 (Eltwise, ADD)                         [b:1,h:100,c:256]                                  25,600                        eltwise_1   |                 -25,600(-100.0%)       
                                                                                                                    tiny_bert_generato..rs___add_y   | 
------ ------------------------------------------------ ----------------------- ----------------- --------------- -------------------------------- --- --------------- ---------------------- ----------------------------------------------------------------------------- 
13     reshape_13 (Reshape, RESHAPE)                    [b:100,c:256]                                                                    eltwise_2   |                                        
------ ------------------------------------------------ ----------------------- ----------------- --------------- -------------------------------- --- --------------- ---------------------- ----------------------------------------------------------------------------- 
14     tiny_bert_generato..dot_MatMul (Placeholder, )   [b:256,c:256]           65,536/65,536                                                        | +1,024(+1.6%)   +6,553,856(+100.0%)    Conv2D_[19]                                                                   
       gemm_14 (Gemm, FULLY_CONNECTED)                  [b:100,c:256]                                      65,792                       reshape_13   |                 -65,792(-100.0%)       
                                                                                                                    tiny_bert_generato..dot_MatMul   | 
------ ------------------------------------------------ ----------------------- ----------------- --------------- -------------------------------- --- --------------- ---------------------- ----------------------------------------------------------------------------- 
15     reshape_15 (Reshape, RESHAPE)                    [b:1,h:100,c:256]                                                                  gemm_14   |                                        
------ ------------------------------------------------ ----------------------- ----------------- --------------- -------------------------------- --- --------------- ---------------------- ----------------------------------------------------------------------------- 
16     encoder_layer_mult..se_49_bias (Placeholder, )   [b:256]                 256/256                                                              |                 +25,600(+100.0%)       Eltwise/add_[20]                                                              
       eltwise_16 (Eltwise, ADD)                        [b:1,h:100,c:256]                                  25,600                       reshape_15   |                 -25,600(-100.0%)       
                                                                                                                    encoder_layer_mult..se_49_bias   | 
------ ------------------------------------------------ ----------------------- ----------------- --------------- -------------------------------- --- --------------- ---------------------- ----------------------------------------------------------------------------- 
17     reshape_17 (Reshape, RESHAPE)                    [b:1,h:100,w:4,c:64]                                                            eltwise_16   |                                        
------ ------------------------------------------------ ----------------------- ----------------- --------------- -------------------------------- --- --------------- ---------------------- ----------------------------------------------------------------------------- 
18     transpose_18 (Transpose, TRANSPOSE)              [b:1,h:4,w:100,c:64]                               12,800                       reshape_17   |                 +51,200(+400.0%)       Transpose_/Conversion_[21, 22]                                                
------ ------------------------------------------------ ----------------------- ----------------- --------------- -------------------------------- --- --------------- ---------------------- ----------------------------------------------------------------------------- 
19     tiny_bert_generato..dot_MatMul (Placeholder, )   [b:256,c:256]           65,536/65,536                                                        | +1,024(+1.6%)   +6,553,856(+100.0%)    Conv2D_[15]                                                                   
       gemm_19 (Gemm, FULLY_CONNECTED)                  [b:100,c:256]                                      65,792                       reshape_13   |                 -65,792(-100.0%)       
                                                                                                                    tiny_bert_generato..dot_MatMul   | 
------ ------------------------------------------------ ----------------------- ----------------- --------------- -------------------------------- --- --------------- ---------------------- ----------------------------------------------------------------------------- 
20     reshape_20 (Reshape, RESHAPE)                    [b:1,h:100,c:256]                                                                  gemm_19   |                                        
------ ------------------------------------------------ ----------------------- ----------------- --------------- -------------------------------- --- --------------- ---------------------- ----------------------------------------------------------------------------- 
21     encoder_layer_mult..se_50_bias (Placeholder, )   [b:256]                 256/256                                                              |                 +25,600(+100.0%)       Eltwise/add_[16]                                                              
       eltwise_21 (Eltwise, ADD)                        [b:1,h:100,c:256]                                  25,600                       reshape_20   |                 -25,600(-100.0%)       
                                                                                                                    encoder_layer_mult..se_50_bias   | 
------ ------------------------------------------------ ----------------------- ----------------- --------------- -------------------------------- --- --------------- ---------------------- ----------------------------------------------------------------------------- 
22     reshape_22 (Reshape, RESHAPE)                    [b:1,h:100,w:4,c:64]                                                            eltwise_21   |                                        
------ ------------------------------------------------ ----------------------- ----------------- --------------- -------------------------------- --- --------------- ---------------------- ----------------------------------------------------------------------------- 
23     transpose_23 (Transpose, TRANSPOSE)              [b:1,h:4,w:100,c:64]                               12,800                       reshape_22   |                 -12,800(-100.0%)       
------ ------------------------------------------------ ----------------------- ----------------- --------------- -------------------------------- --- --------------- ---------------------- ----------------------------------------------------------------------------- 
24     gemm_24 (Gemm, BATCH_MATMUL)                     [b:1,h:4,w:100,c:100]                       1,024,040,000                     transpose_18   | +1(+100.0%)     +144,002(+0.0%)        Conversion_/Transpose_/Conversion_/Gemm_/Conversion_[7, 17, 18, 23, 24]       
                                                                                                                                      transpose_23   | 
------ ------------------------------------------------ ----------------------- ----------------- --------------- -------------------------------- --- --------------- ---------------------- ----------------------------------------------------------------------------- 
25     tiny_bert_generato..on_11_Sqrt (Placeholder, )   []                      1/1                                                                  |                 +40,000(+100.0%)       Eltwise/mul_[25]                                                              
       eltwise_25 (Eltwise, MUL)                        [b:1,h:4,w:100,c:100]                              40,000                          gemm_24   |                 -40,000(-100.0%)       
                                                                                                                    tiny_bert_generato..on_11_Sqrt   | 
------ ------------------------------------------------ ----------------------- ----------------- --------------- -------------------------------- --- --------------- ---------------------- ----------------------------------------------------------------------------- 
26     nl_26 (Nonlinearity, SOFTMAX)                    [b:1,h:4,w:100,c:100]                             600,000                       eltwise_25   |                 +80,000(+13.3%)        Nonlinearity_/Conversion_[26, 27]                                             
------ ------------------------------------------------ ----------------------- ----------------- --------------- -------------------------------- --- --------------- ---------------------- ----------------------------------------------------------------------------- 
27     tiny_bert_generato..dot_MatMul (Placeholder, )   [b:256,c:256]           65,536/65,536                                                        | +1,024(+1.6%)   +6,553,856(+100.0%)    Conv2D_[11]                                                                   
       gemm_27 (Gemm, FULLY_CONNECTED)                  [b:100,c:256]                                      65,792                       reshape_13   |                 -65,792(-100.0%)       
                                                                                                                    tiny_bert_generato..dot_MatMul   | 
------ ------------------------------------------------ ----------------------- ----------------- --------------- -------------------------------- --- --------------- ---------------------- ----------------------------------------------------------------------------- 
28     reshape_28 (Reshape, RESHAPE)                    [b:1,h:100,c:256]                                                                  gemm_27   |                                        
------ ------------------------------------------------ ----------------------- ----------------- --------------- -------------------------------- --- --------------- ---------------------- ----------------------------------------------------------------------------- 
29     encoder_layer_mult..se_51_bias (Placeholder, )   [b:256]                 256/256                                                              |                 +25,600(+100.0%)       Eltwise/add_[12]                                                              
       eltwise_29 (Eltwise, ADD)                        [b:1,h:100,c:256]                                  25,600                       reshape_28   |                 -25,600(-100.0%)       
                                                                                                                    encoder_layer_mult..se_51_bias   | 
------ ------------------------------------------------ ----------------------- ----------------- --------------- -------------------------------- --- --------------- ---------------------- ----------------------------------------------------------------------------- 
30     reshape_30 (Reshape, RESHAPE)                    [b:1,h:100,w:4,c:64]                                                            eltwise_29   |                                        
------ ------------------------------------------------ ----------------------- ----------------- --------------- -------------------------------- --- --------------- ---------------------- ----------------------------------------------------------------------------- 
31     transpose_31 (Transpose, TRANSPOSE)              [b:1,h:4,w:100,c:64]                               12,800                       reshape_30   |                 +51,200(+400.0%)       Transpose_/Conversion_[13, 14]                                                
------ ------------------------------------------------ ----------------------- ----------------- --------------- -------------------------------- --- --------------- ---------------------- ----------------------------------------------------------------------------- 
32     gemm_32 (Gemm, BATCH_MATMUL)                     [b:1,h:4,w:100,c:64]                        1,024,025,600                            nl_26   | +1(+100.0%)     +51,202(+0.0%)         Conversion_/Gemm_/Conversion_[6, 28, 29]                                      
                                                                                                                                      transpose_31   | 
------ ------------------------------------------------ ----------------------- ----------------- --------------- -------------------------------- --- --------------- ---------------------- ----------------------------------------------------------------------------- 
33     transpose_33 (Transpose, TRANSPOSE)              [b:1,h:100,w:4,c:64]                               12,800                          gemm_32   |                                        Transpose_[30]                                                                
------ ------------------------------------------------ ----------------------- ----------------- --------------- -------------------------------- --- --------------- ---------------------- ----------------------------------------------------------------------------- 
34     reshape_34 (Reshape, RESHAPE)                    [b:1,h:100,c:256]                                                             transpose_33   |                                        
------ ------------------------------------------------ ----------------------- ----------------- --------------- -------------------------------- --- --------------- ---------------------- ----------------------------------------------------------------------------- 
42     reshape_42 (Reshape, RESHAPE)                    [b:100,c:256]                                                                 transpose_33   |                                        
------ ------------------------------------------------ ----------------------- ----------------- --------------- -------------------------------- --- --------------- ---------------------- ----------------------------------------------------------------------------- 
43     tiny_bert_generato..dot_MatMul (Placeholder, )   [b:256,c:256]           65,536/65,536                                                        | +1,024(+1.6%)   +6,553,856(+100.0%)    Conv2D_[31]                                                                   
       gemm_43 (Gemm, FULLY_CONNECTED)                  [b:100,c:256]                                      65,792                       reshape_42   |                 -65,792(-100.0%)       
                                                                                                                    tiny_bert_generato..dot_MatMul   | 
------ ------------------------------------------------ ----------------------- ----------------- --------------- -------------------------------- --- --------------- ---------------------- ----------------------------------------------------------------------------- 
44     reshape_44 (Reshape, RESHAPE)                    [b:1,h:100,c:256]                                                                  gemm_43   |                                        
------ ------------------------------------------------ ----------------------- ----------------- --------------- -------------------------------- --- --------------- ---------------------- ----------------------------------------------------------------------------- 
45     encoder_layer_mult..se_52_bias (Placeholder, )   [b:256]                 256/256                                                              |                 +25,600(+100.0%)       Eltwise/add_[32]                                                              
       eltwise_45 (Eltwise, ADD)                        [b:1,h:100,c:256]                                  25,600                       reshape_44   |                 -25,600(-100.0%)       
                                                                                                                    encoder_layer_mult..se_52_bias   | 
------ ------------------------------------------------ ----------------------- ----------------- --------------- -------------------------------- --- --------------- ---------------------- ----------------------------------------------------------------------------- 
46     eltwise_46 (Eltwise, ADD)                        [b:1,h:100,c:256]                                  25,600                        eltwise_2   |                 +51,200(+200.0%)       Eltwise/add_/Conversion_[33, 34]                                              
                                                                                                                                        eltwise_45   | 
------ ------------------------------------------------ ----------------------- ----------------- --------------- -------------------------------- --- --------------- ---------------------- ----------------------------------------------------------------------------- 
47     reduce_47 (Reduce, MEAN)                         [b:1,h:100,c:1]                                    51,200                       eltwise_46   | +8(+100.0%)     -25,000(-48.8%)        Reduce_/ScaleBias_/Conversion_/Conversion_[35, 36, 37, 38]                    
------ ------------------------------------------------ ----------------------- ----------------- --------------- -------------------------------- --- --------------- ---------------------- ----------------------------------------------------------------------------- 
48     eltwise_48 (Eltwise, SQUARED_DIFFERENCE)         [b:1,h:100,c:256]                                 128,000                       eltwise_46   |                                        Eltwise/squared_diff_[39]                                                     
                                                                                                                                         reduce_47   | 
------ ------------------------------------------------ ----------------------- ----------------- --------------- -------------------------------- --- --------------- ---------------------- ----------------------------------------------------------------------------- 
49     reduce_49 (Reduce, MEAN)                         [b:1,h:100,c:1]                                    51,200                       eltwise_48   | +8(+100.0%)     -25,200(-49.2%)        Reduce_/ScaleBias_/Conversion_[40, 41, 42]                                    
------ ------------------------------------------------ ----------------------- ----------------- --------------- -------------------------------- --- --------------- ---------------------- ----------------------------------------------------------------------------- 
50     tiny_bert_generato..norm_add_y (Placeholder, )   []                      1/1                                                                  |                 +100(+100.0%)          Eltwise/add_[43]                                                              
       eltwise_50 (Eltwise, ADD)                        [b:1,h:100,c:1]                                       100                        reduce_49   |                 -100(-100.0%)          
                                                                                                                    tiny_bert_generato..norm_add_y   | 
------ ------------------------------------------------ ----------------------- ----------------- --------------- -------------------------------- --- --------------- ---------------------- ----------------------------------------------------------------------------- 
51     nl_51 (Nonlinearity, RSQRT)                      [b:1,h:100,c:1]                                     1,200                       eltwise_50   |                 -1,100(-91.7%)         Nonlinearity_[44]                                                             
------ ------------------------------------------------ ----------------------- ----------------- --------------- -------------------------------- --- --------------- ---------------------- ----------------------------------------------------------------------------- 
52     encoder_layer_laye..n_16_gamma (Placeholder, )   [b:256]                 256/256                                                              |                 +100(+100.0%)          Eltwise/mul_[45]                                                              
       eltwise_52 (Eltwise, MUL)                        [b:1,h:100,c:256]                                     100                            nl_51   |                 -100(-100.0%)          
                                                                                                                    encoder_layer_laye..n_16_gamma   | 
------ ------------------------------------------------ ----------------------- ----------------- --------------- -------------------------------- --- --------------- ---------------------- ----------------------------------------------------------------------------- 
53     eltwise_53 (Eltwise, MUL)                        [b:1,h:100,c:256]                                  25,600                       eltwise_46   |                                        Eltwise/mul_[48]                                                              
                                                                                                                                        eltwise_52   | 
------ ------------------------------------------------ ----------------------- ----------------- --------------- -------------------------------- --- --------------- ---------------------- ----------------------------------------------------------------------------- 
54     eltwise_54 (Eltwise, MUL)                        [b:1,h:100,c:256]                                     100                        reduce_47   |                                        Eltwise/mul_[46]                                                              
                                                                                                                                        eltwise_52   | 
------ ------------------------------------------------ ----------------------- ----------------- --------------- -------------------------------- --- --------------- ---------------------- ----------------------------------------------------------------------------- 
55     encoder_layer_laye..on_16_beta (Placeholder, )   [b:256]                 256/256                                                              |                 +256(+100.0%)          Eltwise/sub_[47]                                                              
       eltwise_55 (Eltwise, SUB)                        [b:1,h:100,c:256]                                     256   encoder_layer_laye..on_16_beta   |                 -256(-100.0%)          
                                                                                                                                        eltwise_54   | 
------ ------------------------------------------------ ----------------------- ----------------- --------------- -------------------------------- --- --------------- ---------------------- ----------------------------------------------------------------------------- 
56     eltwise_56 (Eltwise, ADD)                        [b:1,h:100,c:256]                                  25,600                       eltwise_53   |                                        Eltwise/add_[49]                                                              
                                                                                                                                        eltwise_55   | 
------ ------------------------------------------------ ----------------------- ----------------- --------------- -------------------------------- --- --------------- ---------------------- ----------------------------------------------------------------------------- 
64     reshape_64 (Reshape, RESHAPE)                    [b:100,c:256]                                                                   eltwise_56   |                                        
------ ------------------------------------------------ ----------------------- ----------------- --------------- -------------------------------- --- --------------- ---------------------- ----------------------------------------------------------------------------- 
65     tiny_bert_generato..dot_MatMul (Placeholder, )   [b:512,c:256]           131,072/131,072                                                      | +2,048(+1.6%)   +13,107,712(+100.0%)   Conv2D_[50]                                                                   
       gemm_65 (Gemm, FULLY_CONNECTED)                  [b:100,c:512]                                     131,584                       reshape_64   |                 -131,584(-100.0%)      
                                                                                                                    tiny_bert_generato..dot_MatMul   | 
------ ------------------------------------------------ ----------------------- ----------------- --------------- -------------------------------- --- --------------- ---------------------- ----------------------------------------------------------------------------- 
66     reshape_66 (Reshape, RESHAPE)                    [b:1,h:100,c:512]                                                                  gemm_65   |                                        
------ ------------------------------------------------ ----------------------- ----------------- --------------- -------------------------------- --- --------------- ---------------------- ----------------------------------------------------------------------------- 
67     dense_53_bias (Placeholder, )                    [b:512]                 512/512                                                              |                 +51,200(+100.0%)       Eltwise/add_[51]                                                              
       eltwise_67 (Eltwise, ADD)                        [b:1,h:100,c:512]                                  51,200                       reshape_66   |                 -51,200(-100.0%)       
                                                                                                                                     dense_53_bias   | 
       nl_67_nl (Nonlinearity, ADD)                     [b:1,h:100,c:512]                                  51,200                       eltwise_67   |                 -51,200(-100.0%)       
------ ------------------------------------------------ ----------------------- ----------------- --------------- -------------------------------- --- --------------- ---------------------- ----------------------------------------------------------------------------- 
75     reshape_75 (Reshape, RESHAPE)                    [b:100,c:512]                                                                     nl_67_nl   |                                        
------ ------------------------------------------------ ----------------------- ----------------- --------------- -------------------------------- --- --------------- ---------------------- ----------------------------------------------------------------------------- 
76     tiny_bert_generato..dot_MatMul (Placeholder, )   [b:256,c:512]           131,072/131,072                                                      | +1,024(+0.8%)   +13,107,456(+100.0%)   Conv2D_[52]                                                                   
       gemm_76 (Gemm, FULLY_CONNECTED)                  [b:100,c:256]                                     131,328                       reshape_75   |                 -131,328(-100.0%)      
                                                                                                                    tiny_bert_generato..dot_MatMul   | 
------ ------------------------------------------------ ----------------------- ----------------- --------------- -------------------------------- --- --------------- ---------------------- ----------------------------------------------------------------------------- 
77     reshape_77 (Reshape, RESHAPE)                    [b:1,h:100,c:256]                                                                  gemm_76   |                                        
------ ------------------------------------------------ ----------------------- ----------------- --------------- -------------------------------- --- --------------- ---------------------- ----------------------------------------------------------------------------- 
78     dense_54_bias (Placeholder, )                    [b:256]                 256/256                                                              |                 +25,600(+100.0%)       Eltwise/add_[53]                                                              
       eltwise_78 (Eltwise, ADD)                        [b:1,h:100,c:256]                                  25,600                       reshape_77   |                 -25,600(-100.0%)       
                                                                                                                                     dense_54_bias   | 
------ ------------------------------------------------ ----------------------- ----------------- --------------- -------------------------------- --- --------------- ---------------------- ----------------------------------------------------------------------------- 
79     eltwise_79 (Eltwise, ADD)                        [b:1,h:100,c:256]                                  25,600                       eltwise_56   |                 +51,200(+200.0%)       Eltwise/add_/Conversion_[54, 55]                                              
                                                                                                                                        eltwise_78   | 
------ ------------------------------------------------ ----------------------- ----------------- --------------- -------------------------------- --- --------------- ---------------------- ----------------------------------------------------------------------------- 
80     reduce_80 (Reduce, MEAN)                         [b:1,h:100,c:1]                                    51,200                       eltwise_79   | +8(+100.0%)     -25,000(-48.8%)        Reduce_/ScaleBias_/Conversion_/Conversion_[56, 57, 58, 59]                    
------ ------------------------------------------------ ----------------------- ----------------- --------------- -------------------------------- --- --------------- ---------------------- ----------------------------------------------------------------------------- 
81     eltwise_81 (Eltwise, SQUARED_DIFFERENCE)         [b:1,h:100,c:256]                                 128,000                       eltwise_79   |                                        Eltwise/squared_diff_[60]                                                     
                                                                                                                                         reduce_80   | 
------ ------------------------------------------------ ----------------------- ----------------- --------------- -------------------------------- --- --------------- ---------------------- ----------------------------------------------------------------------------- 
82     reduce_82 (Reduce, MEAN)                         [b:1,h:100,c:1]                                    51,200                       eltwise_81   | +8(+100.0%)     -25,200(-49.2%)        Reduce_/ScaleBias_/Conversion_[61, 62, 63]                                    
------ ------------------------------------------------ ----------------------- ----------------- --------------- -------------------------------- --- --------------- ---------------------- ----------------------------------------------------------------------------- 
83     eltwise_83 (Eltwise, ADD)                        [b:1,h:100,c:1]                                       100                        reduce_82   | +1(+100.0%)                            Eltwise/add_[64]                                                              
                                                                                                                    tiny_bert_generato..norm_add_y   | 
------ ------------------------------------------------ ----------------------- ----------------- --------------- -------------------------------- --- --------------- ---------------------- ----------------------------------------------------------------------------- 
84     nl_84 (Nonlinearity, RSQRT)                      [b:1,h:100,c:1]                                     1,200                       eltwise_83   |                 -1,100(-91.7%)         Nonlinearity_[65]                                                             
------ ------------------------------------------------ ----------------------- ----------------- --------------- -------------------------------- --- --------------- ---------------------- ----------------------------------------------------------------------------- 
85     encoder_layer_laye..n_17_gamma (Placeholder, )   [b:256]                 256/256                                                              |                 +100(+100.0%)          Eltwise/mul_[66]                                                              
       eltwise_85 (Eltwise, MUL)                        [b:1,h:100,c:256]                                     100                            nl_84   |                 -100(-100.0%)          
                                                                                                                    encoder_layer_laye..n_17_gamma   | 
------ ------------------------------------------------ ----------------------- ----------------- --------------- -------------------------------- --- --------------- ---------------------- ----------------------------------------------------------------------------- 
86     eltwise_86 (Eltwise, MUL)                        [b:1,h:100,c:256]                                  25,600                       eltwise_79   |                                        Eltwise/mul_[69]                                                              
                                                                                                                                        eltwise_85   | 
------ ------------------------------------------------ ----------------------- ----------------- --------------- -------------------------------- --- --------------- ---------------------- ----------------------------------------------------------------------------- 
87     eltwise_87 (Eltwise, MUL)                        [b:1,h:100,c:256]                                     100                        reduce_80   |                                        Eltwise/mul_[67]                                                              
                                                                                                                                        eltwise_85   | 
------ ------------------------------------------------ ----------------------- ----------------- --------------- -------------------------------- --- --------------- ---------------------- ----------------------------------------------------------------------------- 
88     encoder_layer_laye..on_17_beta (Placeholder, )   [b:256]                 256/256                                                              |                 +256(+100.0%)          Eltwise/sub_[68]                                                              
       eltwise_88 (Eltwise, SUB)                        [b:1,h:100,c:256]                                     256   encoder_layer_laye..on_17_beta   |                 -256(-100.0%)          
                                                                                                                                        eltwise_87   | 
------ ------------------------------------------------ ----------------------- ----------------- --------------- -------------------------------- --- --------------- ---------------------- ----------------------------------------------------------------------------- 
89     eltwise_89 (Eltwise, ADD)                        [b:1,h:100,c:256]                                  25,600                       eltwise_86   |                                        Eltwise/add_[70]                                                              
                                                                                                                                        eltwise_88   | 
------ ------------------------------------------------ ----------------------- ----------------- --------------- -------------------------------- --- --------------- ---------------------- ----------------------------------------------------------------------------- 
100    reshape_100 (Reshape, RESHAPE)                   [b:100,c:256]                                                                   eltwise_89   |                                        
------ ------------------------------------------------ ----------------------- ----------------- --------------- -------------------------------- --- --------------- ---------------------- ----------------------------------------------------------------------------- 
101    tiny_bert_generato..dot_MatMul (Placeholder, )   [b:256,c:256]           65,536/65,536                                                        | +1,024(+1.6%)   +6,553,856(+100.0%)    Conv2D_[79]                                                                   
       gemm_101 (Gemm, FULLY_CONNECTED)                 [b:100,c:256]                                      65,792                      reshape_100   |                 -65,792(-100.0%)       
                                                                                                                    tiny_bert_generato..dot_MatMul   | 
------ ------------------------------------------------ ----------------------- ----------------- --------------- -------------------------------- --- --------------- ---------------------- ----------------------------------------------------------------------------- 
102    reshape_102 (Reshape, RESHAPE)                   [b:1,h:100,c:256]                                                                 gemm_101   |                                        
------ ------------------------------------------------ ----------------------- ----------------- --------------- -------------------------------- --- --------------- ---------------------- ----------------------------------------------------------------------------- 
103    encoder_layer_1_mu..se_55_bias (Placeholder, )   [b:256]                 256/256                                                              |                 +25,600(+100.0%)       Eltwise/add_[80]                                                              
       eltwise_103 (Eltwise, ADD)                       [b:1,h:100,c:256]                                  25,600                      reshape_102   |                 -25,600(-100.0%)       
                                                                                                                    encoder_layer_1_mu..se_55_bias   | 
------ ------------------------------------------------ ----------------------- ----------------- --------------- -------------------------------- --- --------------- ---------------------- ----------------------------------------------------------------------------- 
104    reshape_104 (Reshape, RESHAPE)                   [b:1,h:100,w:4,c:64]                                                           eltwise_103   |                                        
------ ------------------------------------------------ ----------------------- ----------------- --------------- -------------------------------- --- --------------- ---------------------- ----------------------------------------------------------------------------- 
105    transpose_105 (Transpose, TRANSPOSE)             [b:1,h:4,w:100,c:64]                               12,800                      reshape_104   |                 +51,200(+400.0%)       Transpose_/Conversion_[81, 82]                                                
------ ------------------------------------------------ ----------------------- ----------------- --------------- -------------------------------- --- --------------- ---------------------- ----------------------------------------------------------------------------- 
106    tiny_bert_generato..dot_MatMul (Placeholder, )   [b:256,c:256]           65,536/65,536                                                        | +1,024(+1.6%)   +6,553,856(+100.0%)    Conv2D_[75]                                                                   
       gemm_106 (Gemm, FULLY_CONNECTED)                 [b:100,c:256]                                      65,792                      reshape_100   |                 -65,792(-100.0%)       
                                                                                                                    tiny_bert_generato..dot_MatMul   | 
------ ------------------------------------------------ ----------------------- ----------------- --------------- -------------------------------- --- --------------- ---------------------- ----------------------------------------------------------------------------- 
107    reshape_107 (Reshape, RESHAPE)                   [b:1,h:100,c:256]                                                                 gemm_106   |                                        
------ ------------------------------------------------ ----------------------- ----------------- --------------- -------------------------------- --- --------------- ---------------------- ----------------------------------------------------------------------------- 
108    encoder_layer_1_mu..se_56_bias (Placeholder, )   [b:256]                 256/256                                                              |                 +25,600(+100.0%)       Eltwise/add_[76]                                                              
       eltwise_108 (Eltwise, ADD)                       [b:1,h:100,c:256]                                  25,600                      reshape_107   |                 -25,600(-100.0%)       
                                                                                                                    encoder_layer_1_mu..se_56_bias   | 
------ ------------------------------------------------ ----------------------- ----------------- --------------- -------------------------------- --- --------------- ---------------------- ----------------------------------------------------------------------------- 
109    reshape_109 (Reshape, RESHAPE)                   [b:1,h:100,w:4,c:64]                                                           eltwise_108   |                                        
------ ------------------------------------------------ ----------------------- ----------------- --------------- -------------------------------- --- --------------- ---------------------- ----------------------------------------------------------------------------- 
110    transpose_110 (Transpose, TRANSPOSE)             [b:1,h:4,w:100,c:64]                               12,800                      reshape_109   |                 -12,800(-100.0%)       
------ ------------------------------------------------ ----------------------- ----------------- --------------- -------------------------------- --- --------------- ---------------------- ----------------------------------------------------------------------------- 
111    gemm_111 (Gemm, BATCH_MATMUL)                    [b:1,h:4,w:100,c:100]                       1,024,040,000                    transpose_105   | +1(+100.0%)     +144,002(+0.0%)        Conversion_/Transpose_/Conversion_/Gemm_/Conversion_[5, 77, 78, 83, 84]       
                                                                                                                                     transpose_110   | 
------ ------------------------------------------------ ----------------------- ----------------- --------------- -------------------------------- --- --------------- ---------------------- ----------------------------------------------------------------------------- 
112    eltwise_112 (Eltwise, MUL)                       [b:1,h:4,w:100,c:100]                              40,000                         gemm_111   | +1(+100.0%)                            Eltwise/mul_[85]                                                              
                                                                                                                    tiny_bert_generato..on_11_Sqrt   | 
------ ------------------------------------------------ ----------------------- ----------------- --------------- -------------------------------- --- --------------- ---------------------- ----------------------------------------------------------------------------- 
113    nl_113 (Nonlinearity, SOFTMAX)                   [b:1,h:4,w:100,c:100]                             600,000                      eltwise_112   |                 +80,000(+13.3%)        Nonlinearity_/Conversion_[86, 87]                                             
------ ------------------------------------------------ ----------------------- ----------------- --------------- -------------------------------- --- --------------- ---------------------- ----------------------------------------------------------------------------- 
114    tiny_bert_generato..dot_MatMul (Placeholder, )   [b:256,c:256]           65,536/65,536                                                        | +1,024(+1.6%)   +6,553,856(+100.0%)    Conv2D_[71]                                                                   
       gemm_114 (Gemm, FULLY_CONNECTED)                 [b:100,c:256]                                      65,792                      reshape_100   |                 -65,792(-100.0%)       
                                                                                                                    tiny_bert_generato..dot_MatMul   | 
------ ------------------------------------------------ ----------------------- ----------------- --------------- -------------------------------- --- --------------- ---------------------- ----------------------------------------------------------------------------- 
115    reshape_115 (Reshape, RESHAPE)                   [b:1,h:100,c:256]                                                                 gemm_114   |                                        
------ ------------------------------------------------ ----------------------- ----------------- --------------- -------------------------------- --- --------------- ---------------------- ----------------------------------------------------------------------------- 
116    encoder_layer_1_mu..se_57_bias (Placeholder, )   [b:256]                 256/256                                                              |                 +25,600(+100.0%)       Eltwise/add_[72]                                                              
       eltwise_116 (Eltwise, ADD)                       [b:1,h:100,c:256]                                  25,600                      reshape_115   |                 -25,600(-100.0%)       
                                                                                                                    encoder_layer_1_mu..se_57_bias   | 
------ ------------------------------------------------ ----------------------- ----------------- --------------- -------------------------------- --- --------------- ---------------------- ----------------------------------------------------------------------------- 
117    reshape_117 (Reshape, RESHAPE)                   [b:1,h:100,w:4,c:64]                                                           eltwise_116   |                                        
------ ------------------------------------------------ ----------------------- ----------------- --------------- -------------------------------- --- --------------- ---------------------- ----------------------------------------------------------------------------- 
118    transpose_118 (Transpose, TRANSPOSE)             [b:1,h:4,w:100,c:64]                               12,800                      reshape_117   |                 +51,200(+400.0%)       Transpose_/Conversion_[73, 74]                                                
------ ------------------------------------------------ ----------------------- ----------------- --------------- -------------------------------- --- --------------- ---------------------- ----------------------------------------------------------------------------- 
119    gemm_119 (Gemm, BATCH_MATMUL)                    [b:1,h:4,w:100,c:64]                        1,024,025,600                           nl_113   | +1(+100.0%)     +51,202(+0.0%)         Conversion_/Gemm_/Conversion_[4, 88, 89]                                      
                                                                                                                                     transpose_118   | 
------ ------------------------------------------------ ----------------------- ----------------- --------------- -------------------------------- --- --------------- ---------------------- ----------------------------------------------------------------------------- 
120    transpose_120 (Transpose, TRANSPOSE)             [b:1,h:100,w:4,c:64]                               12,800                         gemm_119   |                                        Transpose_[90]                                                                
------ ------------------------------------------------ ----------------------- ----------------- --------------- -------------------------------- --- --------------- ---------------------- ----------------------------------------------------------------------------- 
121    reshape_121 (Reshape, RESHAPE)                   [b:1,h:100,c:256]                                                            transpose_120   |                                        
------ ------------------------------------------------ ----------------------- ----------------- --------------- -------------------------------- --- --------------- ---------------------- ----------------------------------------------------------------------------- 
129    reshape_129 (Reshape, RESHAPE)                   [b:100,c:256]                                                                transpose_120   |                                        
------ ------------------------------------------------ ----------------------- ----------------- --------------- -------------------------------- --- --------------- ---------------------- ----------------------------------------------------------------------------- 
130    tiny_bert_generato..dot_MatMul (Placeholder, )   [b:256,c:256]           65,536/65,536                                                        | +1,024(+1.6%)   +6,553,856(+100.0%)    Conv2D_[91]                                                                   
       gemm_130 (Gemm, FULLY_CONNECTED)                 [b:100,c:256]                                      65,792                      reshape_129   |                 -65,792(-100.0%)       
                                                                                                                    tiny_bert_generato..dot_MatMul   | 
------ ------------------------------------------------ ----------------------- ----------------- --------------- -------------------------------- --- --------------- ---------------------- ----------------------------------------------------------------------------- 
131    reshape_131 (Reshape, RESHAPE)                   [b:1,h:100,c:256]                                                                 gemm_130   |                                        
------ ------------------------------------------------ ----------------------- ----------------- --------------- -------------------------------- --- --------------- ---------------------- ----------------------------------------------------------------------------- 
132    encoder_layer_1_mu..se_58_bias (Placeholder, )   [b:256]                 256/256                                                              |                 +25,600(+100.0%)       Eltwise/add_[92]                                                              
       eltwise_132 (Eltwise, ADD)                       [b:1,h:100,c:256]                                  25,600                      reshape_131   |                 -25,600(-100.0%)       
                                                                                                                    encoder_layer_1_mu..se_58_bias   | 
------ ------------------------------------------------ ----------------------- ----------------- --------------- -------------------------------- --- --------------- ---------------------- ----------------------------------------------------------------------------- 
133    eltwise_133 (Eltwise, ADD)                       [b:1,h:100,c:256]                                  25,600                       eltwise_89   |                 +51,200(+200.0%)       Eltwise/add_/Conversion_[93, 94]                                              
                                                                                                                                       eltwise_132   | 
------ ------------------------------------------------ ----------------------- ----------------- --------------- -------------------------------- --- --------------- ---------------------- ----------------------------------------------------------------------------- 
134    reduce_134 (Reduce, MEAN)                        [b:1,h:100,c:1]                                    51,200                      eltwise_133   | +8(+100.0%)     -25,000(-48.8%)        Reduce_/ScaleBias_/Conversion_/Conversion_[95, 96, 97, 98]                    
------ ------------------------------------------------ ----------------------- ----------------- --------------- -------------------------------- --- --------------- ---------------------- ----------------------------------------------------------------------------- 
135    eltwise_135 (Eltwise, SQUARED_DIFFERENCE)        [b:1,h:100,c:256]                                 128,000                      eltwise_133   |                                        Eltwise/squared_diff_[99]                                                     
                                                                                                                                        reduce_134   | 
------ ------------------------------------------------ ----------------------- ----------------- --------------- -------------------------------- --- --------------- ---------------------- ----------------------------------------------------------------------------- 
136    reduce_136 (Reduce, MEAN)                        [b:1,h:100,c:1]                                    51,200                      eltwise_135   | +8(+100.0%)     -25,200(-49.2%)        Reduce_/ScaleBias_/Conversion_[100, 101, 102]                                 
------ ------------------------------------------------ ----------------------- ----------------- --------------- -------------------------------- --- --------------- ---------------------- ----------------------------------------------------------------------------- 
137    eltwise_137 (Eltwise, ADD)                       [b:1,h:100,c:1]                                       100                       reduce_136   | +1(+100.0%)                            Eltwise/add_[103]                                                             
                                                                                                                    tiny_bert_generato..norm_add_y   | 
------ ------------------------------------------------ ----------------------- ----------------- --------------- -------------------------------- --- --------------- ---------------------- ----------------------------------------------------------------------------- 
138    nl_138 (Nonlinearity, RSQRT)                     [b:1,h:100,c:1]                                     1,200                      eltwise_137   |                 -1,100(-91.7%)         Nonlinearity_[104]                                                            
------ ------------------------------------------------ ----------------------- ----------------- --------------- -------------------------------- --- --------------- ---------------------- ----------------------------------------------------------------------------- 
139    encoder_layer_1_la..n_18_gamma (Placeholder, )   [b:256]                 256/256                                                              |                 +100(+100.0%)          Eltwise/mul_[105]                                                             
       eltwise_139 (Eltwise, MUL)                       [b:1,h:100,c:256]                                     100                           nl_138   |                 -100(-100.0%)          
                                                                                                                    encoder_layer_1_la..n_18_gamma   | 
------ ------------------------------------------------ ----------------------- ----------------- --------------- -------------------------------- --- --------------- ---------------------- ----------------------------------------------------------------------------- 
140    eltwise_140 (Eltwise, MUL)                       [b:1,h:100,c:256]                                  25,600                      eltwise_133   |                                        Eltwise/mul_[108]                                                             
                                                                                                                                       eltwise_139   | 
------ ------------------------------------------------ ----------------------- ----------------- --------------- -------------------------------- --- --------------- ---------------------- ----------------------------------------------------------------------------- 
141    eltwise_141 (Eltwise, MUL)                       [b:1,h:100,c:256]                                     100                       reduce_134   |                                        Eltwise/mul_[106]                                                             
                                                                                                                                       eltwise_139   | 
------ ------------------------------------------------ ----------------------- ----------------- --------------- -------------------------------- --- --------------- ---------------------- ----------------------------------------------------------------------------- 
142    encoder_layer_1_la..on_18_beta (Placeholder, )   [b:256]                 256/256                                                              |                 +256(+100.0%)          Eltwise/sub_[107]                                                             
       eltwise_142 (Eltwise, SUB)                       [b:1,h:100,c:256]                                     256   encoder_layer_1_la..on_18_beta   |                 -256(-100.0%)          
                                                                                                                                       eltwise_141   | 
------ ------------------------------------------------ ----------------------- ----------------- --------------- -------------------------------- --- --------------- ---------------------- ----------------------------------------------------------------------------- 
143    eltwise_143 (Eltwise, ADD)                       [b:1,h:100,c:256]                                  25,600                      eltwise_140   |                                        Eltwise/add_[109]                                                             
                                                                                                                                       eltwise_142   | 
------ ------------------------------------------------ ----------------------- ----------------- --------------- -------------------------------- --- --------------- ---------------------- ----------------------------------------------------------------------------- 
151    reshape_151 (Reshape, RESHAPE)                   [b:100,c:256]                                                                  eltwise_143   |                                        
------ ------------------------------------------------ ----------------------- ----------------- --------------- -------------------------------- --- --------------- ---------------------- ----------------------------------------------------------------------------- 
152    tiny_bert_generato..dot_MatMul (Placeholder, )   [b:512,c:256]           131,072/131,072                                                      | +2,048(+1.6%)   +13,107,712(+100.0%)   Conv2D_[110]                                                                  
       gemm_152 (Gemm, FULLY_CONNECTED)                 [b:100,c:512]                                     131,584                      reshape_151   |                 -131,584(-100.0%)      
                                                                                                                    tiny_bert_generato..dot_MatMul   | 
------ ------------------------------------------------ ----------------------- ----------------- --------------- -------------------------------- --- --------------- ---------------------- ----------------------------------------------------------------------------- 
153    reshape_153 (Reshape, RESHAPE)                   [b:1,h:100,c:512]                                                                 gemm_152   |                                        
------ ------------------------------------------------ ----------------------- ----------------- --------------- -------------------------------- --- --------------- ---------------------- ----------------------------------------------------------------------------- 
154    dense_59_bias (Placeholder, )                    [b:512]                 512/512                                                              |                 +51,200(+100.0%)       Eltwise/add_[111]                                                             
       eltwise_154 (Eltwise, ADD)                       [b:1,h:100,c:512]                                  51,200                      reshape_153   |                 -51,200(-100.0%)       
                                                                                                                                     dense_59_bias   | 
       nl_154_nl (Nonlinearity, ADD)                    [b:1,h:100,c:512]                                  51,200                      eltwise_154   |                 -51,200(-100.0%)       
------ ------------------------------------------------ ----------------------- ----------------- --------------- -------------------------------- --- --------------- ---------------------- ----------------------------------------------------------------------------- 
162    reshape_162 (Reshape, RESHAPE)                   [b:100,c:512]                                                                    nl_154_nl   |                                        
------ ------------------------------------------------ ----------------------- ----------------- --------------- -------------------------------- --- --------------- ---------------------- ----------------------------------------------------------------------------- 
163    tiny_bert_generato..dot_MatMul (Placeholder, )   [b:256,c:512]           131,072/131,072                                                      | +1,024(+0.8%)   +13,107,456(+100.0%)   Conv2D_[112]                                                                  
       gemm_163 (Gemm, FULLY_CONNECTED)                 [b:100,c:256]                                     131,328                      reshape_162   |                 -131,328(-100.0%)      
                                                                                                                    tiny_bert_generato..dot_MatMul   | 
------ ------------------------------------------------ ----------------------- ----------------- --------------- -------------------------------- --- --------------- ---------------------- ----------------------------------------------------------------------------- 
164    reshape_164 (Reshape, RESHAPE)                   [b:1,h:100,c:256]                                                                 gemm_163   |                                        
------ ------------------------------------------------ ----------------------- ----------------- --------------- -------------------------------- --- --------------- ---------------------- ----------------------------------------------------------------------------- 
165    dense_60_bias (Placeholder, )                    [b:256]                 256/256                                                              |                 +25,600(+100.0%)       Eltwise/add_[113]                                                             
       eltwise_165 (Eltwise, ADD)                       [b:1,h:100,c:256]                                  25,600                      reshape_164   |                 -25,600(-100.0%)       
                                                                                                                                     dense_60_bias   | 
------ ------------------------------------------------ ----------------------- ----------------- --------------- -------------------------------- --- --------------- ---------------------- ----------------------------------------------------------------------------- 
166    eltwise_166 (Eltwise, ADD)                       [b:1,h:100,c:256]                                  25,600                      eltwise_143   |                 +51,200(+200.0%)       Eltwise/add_/Conversion_[114, 115]                                            
                                                                                                                                       eltwise_165   | 
------ ------------------------------------------------ ----------------------- ----------------- --------------- -------------------------------- --- --------------- ---------------------- ----------------------------------------------------------------------------- 
167    reduce_167 (Reduce, MEAN)                        [b:1,h:100,c:1]                                    51,200                      eltwise_166   | +8(+100.0%)     -25,000(-48.8%)        Reduce_/ScaleBias_/Conversion_/Conversion_[116, 117, 118, 119]                
------ ------------------------------------------------ ----------------------- ----------------- --------------- -------------------------------- --- --------------- ---------------------- ----------------------------------------------------------------------------- 
168    eltwise_168 (Eltwise, SQUARED_DIFFERENCE)        [b:1,h:100,c:256]                                 128,000                      eltwise_166   |                                        Eltwise/squared_diff_[120]                                                    
                                                                                                                                        reduce_167   | 
------ ------------------------------------------------ ----------------------- ----------------- --------------- -------------------------------- --- --------------- ---------------------- ----------------------------------------------------------------------------- 
169    reduce_169 (Reduce, MEAN)                        [b:1,h:100,c:1]                                    51,200                      eltwise_168   | +8(+100.0%)     -25,200(-49.2%)        Reduce_/ScaleBias_/Conversion_[121, 122, 123]                                 
------ ------------------------------------------------ ----------------------- ----------------- --------------- -------------------------------- --- --------------- ---------------------- ----------------------------------------------------------------------------- 
170    eltwise_170 (Eltwise, ADD)                       [b:1,h:100,c:1]                                       100                       reduce_169   | +1(+100.0%)                            Eltwise/add_[124]                                                             
                                                                                                                    tiny_bert_generato..norm_add_y   | 
------ ------------------------------------------------ ----------------------- ----------------- --------------- -------------------------------- --- --------------- ---------------------- ----------------------------------------------------------------------------- 
171    nl_171 (Nonlinearity, RSQRT)                     [b:1,h:100,c:1]                                     1,200                      eltwise_170   |                 -1,100(-91.7%)         Nonlinearity_[125]                                                            
------ ------------------------------------------------ ----------------------- ----------------- --------------- -------------------------------- --- --------------- ---------------------- ----------------------------------------------------------------------------- 
172    encoder_layer_1_la..n_19_gamma (Placeholder, )   [b:256]                 256/256                                                              |                 +100(+100.0%)          Eltwise/mul_[126]                                                             
       eltwise_172 (Eltwise, MUL)                       [b:1,h:100,c:256]                                     100                           nl_171   |                 -100(-100.0%)          
                                                                                                                    encoder_layer_1_la..n_19_gamma   | 
------ ------------------------------------------------ ----------------------- ----------------- --------------- -------------------------------- --- --------------- ---------------------- ----------------------------------------------------------------------------- 
173    eltwise_173 (Eltwise, MUL)                       [b:1,h:100,c:256]                                  25,600                      eltwise_166   |                                        Eltwise/mul_[129]                                                             
                                                                                                                                       eltwise_172   | 
------ ------------------------------------------------ ----------------------- ----------------- --------------- -------------------------------- --- --------------- ---------------------- ----------------------------------------------------------------------------- 
174    eltwise_174 (Eltwise, MUL)                       [b:1,h:100,c:256]                                     100                       reduce_167   |                                        Eltwise/mul_[127]                                                             
                                                                                                                                       eltwise_172   | 
------ ------------------------------------------------ ----------------------- ----------------- --------------- -------------------------------- --- --------------- ---------------------- ----------------------------------------------------------------------------- 
175    encoder_layer_1_la..on_19_beta (Placeholder, )   [b:256]                 256/256                                                              |                 +256(+100.0%)          Eltwise/sub_[128]                                                             
       eltwise_175 (Eltwise, SUB)                       [b:1,h:100,c:256]                                     256   encoder_layer_1_la..on_19_beta   |                 -256(-100.0%)          
                                                                                                                                       eltwise_174   | 
------ ------------------------------------------------ ----------------------- ----------------- --------------- -------------------------------- --- --------------- ---------------------- ----------------------------------------------------------------------------- 
176    eltwise_176 (Eltwise, ADD)                       [b:1,h:100,c:256]                                  25,600                      eltwise_173   |                                        Eltwise/add_[130]                                                             
                                                                                                                                       eltwise_175   | 
------ ------------------------------------------------ ----------------------- ----------------- --------------- -------------------------------- --- --------------- ---------------------- ----------------------------------------------------------------------------- 
187    reshape_187 (Reshape, RESHAPE)                   [b:100,c:256]                                                                  eltwise_176   |                                        
------ ------------------------------------------------ ----------------------- ----------------- --------------- -------------------------------- --- --------------- ---------------------- ----------------------------------------------------------------------------- 
188    tiny_bert_generato..dot_MatMul (Placeholder, )   [b:256,c:256]           65,536/65,536                                                        | +1,024(+1.6%)   +6,553,856(+100.0%)    Conv2D_[139]                                                                  
       gemm_188 (Gemm, FULLY_CONNECTED)                 [b:100,c:256]                                      65,792                      reshape_187   |                 -65,792(-100.0%)       
                                                                                                                    tiny_bert_generato..dot_MatMul   | 
------ ------------------------------------------------ ----------------------- ----------------- --------------- -------------------------------- --- --------------- ---------------------- ----------------------------------------------------------------------------- 
189    reshape_189 (Reshape, RESHAPE)                   [b:1,h:100,c:256]                                                                 gemm_188   |                                        
------ ------------------------------------------------ ----------------------- ----------------- --------------- -------------------------------- --- --------------- ---------------------- ----------------------------------------------------------------------------- 
190    encoder_layer_2_mu..se_61_bias (Placeholder, )   [b:256]                 256/256                                                              |                 +25,600(+100.0%)       Eltwise/add_[140]                                                             
       eltwise_190 (Eltwise, ADD)                       [b:1,h:100,c:256]                                  25,600                      reshape_189   |                 -25,600(-100.0%)       
                                                                                                                    encoder_layer_2_mu..se_61_bias   | 
------ ------------------------------------------------ ----------------------- ----------------- --------------- -------------------------------- --- --------------- ---------------------- ----------------------------------------------------------------------------- 
191    reshape_191 (Reshape, RESHAPE)                   [b:1,h:100,w:4,c:64]                                                           eltwise_190   |                                        
------ ------------------------------------------------ ----------------------- ----------------- --------------- -------------------------------- --- --------------- ---------------------- ----------------------------------------------------------------------------- 
192    transpose_192 (Transpose, TRANSPOSE)             [b:1,h:4,w:100,c:64]                               12,800                      reshape_191   |                 +51,200(+400.0%)       Transpose_/Conversion_[141, 142]                                              
------ ------------------------------------------------ ----------------------- ----------------- --------------- -------------------------------- --- --------------- ---------------------- ----------------------------------------------------------------------------- 
193    tiny_bert_generato..dot_MatMul (Placeholder, )   [b:256,c:256]           65,536/65,536                                                        | +1,024(+1.6%)   +6,553,856(+100.0%)    Conv2D_[135]                                                                  
       gemm_193 (Gemm, FULLY_CONNECTED)                 [b:100,c:256]                                      65,792                      reshape_187   |                 -65,792(-100.0%)       
                                                                                                                    tiny_bert_generato..dot_MatMul   | 
------ ------------------------------------------------ ----------------------- ----------------- --------------- -------------------------------- --- --------------- ---------------------- ----------------------------------------------------------------------------- 
194    reshape_194 (Reshape, RESHAPE)                   [b:1,h:100,c:256]                                                                 gemm_193   |                                        
------ ------------------------------------------------ ----------------------- ----------------- --------------- -------------------------------- --- --------------- ---------------------- ----------------------------------------------------------------------------- 
195    encoder_layer_2_mu..se_62_bias (Placeholder, )   [b:256]                 256/256                                                              |                 +25,600(+100.0%)       Eltwise/add_[136]                                                             
       eltwise_195 (Eltwise, ADD)                       [b:1,h:100,c:256]                                  25,600                      reshape_194   |                 -25,600(-100.0%)       
                                                                                                                    encoder_layer_2_mu..se_62_bias   | 
------ ------------------------------------------------ ----------------------- ----------------- --------------- -------------------------------- --- --------------- ---------------------- ----------------------------------------------------------------------------- 
196    reshape_196 (Reshape, RESHAPE)                   [b:1,h:100,w:4,c:64]                                                           eltwise_195   |                                        
------ ------------------------------------------------ ----------------------- ----------------- --------------- -------------------------------- --- --------------- ---------------------- ----------------------------------------------------------------------------- 
197    transpose_197 (Transpose, TRANSPOSE)             [b:1,h:4,w:100,c:64]                               12,800                      reshape_196   |                 -12,800(-100.0%)       
------ ------------------------------------------------ ----------------------- ----------------- --------------- -------------------------------- --- --------------- ---------------------- ----------------------------------------------------------------------------- 
198    gemm_198 (Gemm, BATCH_MATMUL)                    [b:1,h:4,w:100,c:100]                       1,024,040,000                    transpose_192   | +1(+100.0%)     +144,002(+0.0%)        Conversion_/Transpose_/Conversion_/Gemm_/Conversion_[3, 137, 138, 143, 144]   
                                                                                                                                     transpose_197   | 
------ ------------------------------------------------ ----------------------- ----------------- --------------- -------------------------------- --- --------------- ---------------------- ----------------------------------------------------------------------------- 
199    eltwise_199 (Eltwise, MUL)                       [b:1,h:4,w:100,c:100]                              40,000                         gemm_198   | +1(+100.0%)                            Eltwise/mul_[145]                                                             
                                                                                                                    tiny_bert_generato..on_11_Sqrt   | 
------ ------------------------------------------------ ----------------------- ----------------- --------------- -------------------------------- --- --------------- ---------------------- ----------------------------------------------------------------------------- 
200    nl_200 (Nonlinearity, SOFTMAX)                   [b:1,h:4,w:100,c:100]                             600,000                      eltwise_199   |                 +80,000(+13.3%)        Nonlinearity_/Conversion_[146, 147]                                           
------ ------------------------------------------------ ----------------------- ----------------- --------------- -------------------------------- --- --------------- ---------------------- ----------------------------------------------------------------------------- 
201    tiny_bert_generato..dot_MatMul (Placeholder, )   [b:256,c:256]           65,536/65,536                                                        | +1,024(+1.6%)   +6,553,856(+100.0%)    Conv2D_[131]                                                                  
       gemm_201 (Gemm, FULLY_CONNECTED)                 [b:100,c:256]                                      65,792                      reshape_187   |                 -65,792(-100.0%)       
                                                                                                                    tiny_bert_generato..dot_MatMul   | 
------ ------------------------------------------------ ----------------------- ----------------- --------------- -------------------------------- --- --------------- ---------------------- ----------------------------------------------------------------------------- 
202    reshape_202 (Reshape, RESHAPE)                   [b:1,h:100,c:256]                                                                 gemm_201   |                                        
------ ------------------------------------------------ ----------------------- ----------------- --------------- -------------------------------- --- --------------- ---------------------- ----------------------------------------------------------------------------- 
203    encoder_layer_2_mu..se_63_bias (Placeholder, )   [b:256]                 256/256                                                              |                 +25,600(+100.0%)       Eltwise/add_[132]                                                             
       eltwise_203 (Eltwise, ADD)                       [b:1,h:100,c:256]                                  25,600                      reshape_202   |                 -25,600(-100.0%)       
                                                                                                                    encoder_layer_2_mu..se_63_bias   | 
------ ------------------------------------------------ ----------------------- ----------------- --------------- -------------------------------- --- --------------- ---------------------- ----------------------------------------------------------------------------- 
204    reshape_204 (Reshape, RESHAPE)                   [b:1,h:100,w:4,c:64]                                                           eltwise_203   |                                        
------ ------------------------------------------------ ----------------------- ----------------- --------------- -------------------------------- --- --------------- ---------------------- ----------------------------------------------------------------------------- 
205    transpose_205 (Transpose, TRANSPOSE)             [b:1,h:4,w:100,c:64]                               12,800                      reshape_204   |                 +51,200(+400.0%)       Transpose_/Conversion_[133, 134]                                              
------ ------------------------------------------------ ----------------------- ----------------- --------------- -------------------------------- --- --------------- ---------------------- ----------------------------------------------------------------------------- 
206    gemm_206 (Gemm, BATCH_MATMUL)                    [b:1,h:4,w:100,c:64]                        1,024,025,600                           nl_200   | +1(+100.0%)     +51,202(+0.0%)         Conversion_/Gemm_/Conversion_[2, 148, 149]                                    
                                                                                                                                     transpose_205   | 
------ ------------------------------------------------ ----------------------- ----------------- --------------- -------------------------------- --- --------------- ---------------------- ----------------------------------------------------------------------------- 
207    transpose_207 (Transpose, TRANSPOSE)             [b:1,h:100,w:4,c:64]                               12,800                         gemm_206   |                                        Transpose_[150]                                                               
------ ------------------------------------------------ ----------------------- ----------------- --------------- -------------------------------- --- --------------- ---------------------- ----------------------------------------------------------------------------- 
208    reshape_208 (Reshape, RESHAPE)                   [b:1,h:100,c:256]                                                            transpose_207   |                                        
------ ------------------------------------------------ ----------------------- ----------------- --------------- -------------------------------- --- --------------- ---------------------- ----------------------------------------------------------------------------- 
216    reshape_216 (Reshape, RESHAPE)                   [b:100,c:256]                                                                transpose_207   |                                        
------ ------------------------------------------------ ----------------------- ----------------- --------------- -------------------------------- --- --------------- ---------------------- ----------------------------------------------------------------------------- 
217    tiny_bert_generato..dot_MatMul (Placeholder, )   [b:256,c:256]           65,536/65,536                                                        | +1,024(+1.6%)   +6,553,856(+100.0%)    Conv2D_[151]                                                                  
       gemm_217 (Gemm, FULLY_CONNECTED)                 [b:100,c:256]                                      65,792                      reshape_216   |                 -65,792(-100.0%)       
                                                                                                                    tiny_bert_generato..dot_MatMul   | 
------ ------------------------------------------------ ----------------------- ----------------- --------------- -------------------------------- --- --------------- ---------------------- ----------------------------------------------------------------------------- 
218    reshape_218 (Reshape, RESHAPE)                   [b:1,h:100,c:256]                                                                 gemm_217   |                                        
------ ------------------------------------------------ ----------------------- ----------------- --------------- -------------------------------- --- --------------- ---------------------- ----------------------------------------------------------------------------- 
219    encoder_layer_2_mu..se_64_bias (Placeholder, )   [b:256]                 256/256                                                              |                 +25,600(+100.0%)       Eltwise/add_[152]                                                             
       eltwise_219 (Eltwise, ADD)                       [b:1,h:100,c:256]                                  25,600                      reshape_218   |                 -25,600(-100.0%)       
                                                                                                                    encoder_layer_2_mu..se_64_bias   | 
------ ------------------------------------------------ ----------------------- ----------------- --------------- -------------------------------- --- --------------- ---------------------- ----------------------------------------------------------------------------- 
220    eltwise_220 (Eltwise, ADD)                       [b:1,h:100,c:256]                                  25,600                      eltwise_176   |                 +51,200(+200.0%)       Eltwise/add_/Conversion_[153, 154]                                            
                                                                                                                                       eltwise_219   | 
------ ------------------------------------------------ ----------------------- ----------------- --------------- -------------------------------- --- --------------- ---------------------- ----------------------------------------------------------------------------- 
221    reduce_221 (Reduce, MEAN)                        [b:1,h:100,c:1]                                    51,200                      eltwise_220   | +8(+100.0%)     -25,000(-48.8%)        Reduce_/ScaleBias_/Conversion_/Conversion_[155, 156, 157, 158]                
------ ------------------------------------------------ ----------------------- ----------------- --------------- -------------------------------- --- --------------- ---------------------- ----------------------------------------------------------------------------- 
222    eltwise_222 (Eltwise, SQUARED_DIFFERENCE)        [b:1,h:100,c:256]                                 128,000                      eltwise_220   |                                        Eltwise/squared_diff_[159]                                                    
                                                                                                                                        reduce_221   | 
------ ------------------------------------------------ ----------------------- ----------------- --------------- -------------------------------- --- --------------- ---------------------- ----------------------------------------------------------------------------- 
223    reduce_223 (Reduce, MEAN)                        [b:1,h:100,c:1]                                    51,200                      eltwise_222   | +8(+100.0%)     -25,200(-49.2%)        Reduce_/ScaleBias_/Conversion_[160, 161, 162]                                 
------ ------------------------------------------------ ----------------------- ----------------- --------------- -------------------------------- --- --------------- ---------------------- ----------------------------------------------------------------------------- 
224    eltwise_224 (Eltwise, ADD)                       [b:1,h:100,c:1]                                       100                       reduce_223   | +1(+100.0%)                            Eltwise/add_[163]                                                             
                                                                                                                    tiny_bert_generato..norm_add_y   | 
------ ------------------------------------------------ ----------------------- ----------------- --------------- -------------------------------- --- --------------- ---------------------- ----------------------------------------------------------------------------- 
225    nl_225 (Nonlinearity, RSQRT)                     [b:1,h:100,c:1]                                     1,200                      eltwise_224   |                 -1,100(-91.7%)         Nonlinearity_[164]                                                            
------ ------------------------------------------------ ----------------------- ----------------- --------------- -------------------------------- --- --------------- ---------------------- ----------------------------------------------------------------------------- 
226    encoder_layer_2_la..n_20_gamma (Placeholder, )   [b:256]                 256/256                                                              |                 +100(+100.0%)          Eltwise/mul_[165]                                                             
       eltwise_226 (Eltwise, MUL)                       [b:1,h:100,c:256]                                     100                           nl_225   |                 -100(-100.0%)          
                                                                                                                    encoder_layer_2_la..n_20_gamma   | 
------ ------------------------------------------------ ----------------------- ----------------- --------------- -------------------------------- --- --------------- ---------------------- ----------------------------------------------------------------------------- 
227    eltwise_227 (Eltwise, MUL)                       [b:1,h:100,c:256]                                  25,600                      eltwise_220   |                                        Eltwise/mul_[168]                                                             
                                                                                                                                       eltwise_226   | 
------ ------------------------------------------------ ----------------------- ----------------- --------------- -------------------------------- --- --------------- ---------------------- ----------------------------------------------------------------------------- 
228    eltwise_228 (Eltwise, MUL)                       [b:1,h:100,c:256]                                     100                       reduce_221   |                                        Eltwise/mul_[166]                                                             
                                                                                                                                       eltwise_226   | 
------ ------------------------------------------------ ----------------------- ----------------- --------------- -------------------------------- --- --------------- ---------------------- ----------------------------------------------------------------------------- 
229    encoder_layer_2_la..on_20_beta (Placeholder, )   [b:256]                 256/256                                                              |                 +256(+100.0%)          Eltwise/sub_[167]                                                             
       eltwise_229 (Eltwise, SUB)                       [b:1,h:100,c:256]                                     256   encoder_layer_2_la..on_20_beta   |                 -256(-100.0%)          
                                                                                                                                       eltwise_228   | 
------ ------------------------------------------------ ----------------------- ----------------- --------------- -------------------------------- --- --------------- ---------------------- ----------------------------------------------------------------------------- 
230    eltwise_230 (Eltwise, ADD)                       [b:1,h:100,c:256]                                  25,600                      eltwise_227   |                                        Eltwise/add_[169]                                                             
                                                                                                                                       eltwise_229   | 
------ ------------------------------------------------ ----------------------- ----------------- --------------- -------------------------------- --- --------------- ---------------------- ----------------------------------------------------------------------------- 
238    reshape_238 (Reshape, RESHAPE)                   [b:100,c:256]                                                                  eltwise_230   |                                        
------ ------------------------------------------------ ----------------------- ----------------- --------------- -------------------------------- --- --------------- ---------------------- ----------------------------------------------------------------------------- 
239    tiny_bert_generato..dot_MatMul (Placeholder, )   [b:512,c:256]           131,072/131,072                                                      | +2,048(+1.6%)   +13,107,712(+100.0%)   Conv2D_[170]                                                                  
       gemm_239 (Gemm, FULLY_CONNECTED)                 [b:100,c:512]                                     131,584                      reshape_238   |                 -131,584(-100.0%)      
                                                                                                                    tiny_bert_generato..dot_MatMul   | 
------ ------------------------------------------------ ----------------------- ----------------- --------------- -------------------------------- --- --------------- ---------------------- ----------------------------------------------------------------------------- 
240    reshape_240 (Reshape, RESHAPE)                   [b:1,h:100,c:512]                                                                 gemm_239   |                                        
------ ------------------------------------------------ ----------------------- ----------------- --------------- -------------------------------- --- --------------- ---------------------- ----------------------------------------------------------------------------- 
241    dense_65_bias (Placeholder, )                    [b:512]                 512/512                                                              |                 +51,200(+100.0%)       Eltwise/add_[171]                                                             
       eltwise_241 (Eltwise, ADD)                       [b:1,h:100,c:512]                                  51,200                      reshape_240   |                 -51,200(-100.0%)       
                                                                                                                                     dense_65_bias   | 
       nl_241_nl (Nonlinearity, ADD)                    [b:1,h:100,c:512]                                  51,200                      eltwise_241   |                 -51,200(-100.0%)       
------ ------------------------------------------------ ----------------------- ----------------- --------------- -------------------------------- --- --------------- ---------------------- ----------------------------------------------------------------------------- 
249    reshape_249 (Reshape, RESHAPE)                   [b:100,c:512]                                                                    nl_241_nl   |                                        
------ ------------------------------------------------ ----------------------- ----------------- --------------- -------------------------------- --- --------------- ---------------------- ----------------------------------------------------------------------------- 
250    tiny_bert_generato..dot_MatMul (Placeholder, )   [b:256,c:512]           131,072/131,072                                                      | +1,024(+0.8%)   +13,107,456(+100.0%)   Conv2D_[172]                                                                  
       gemm_250 (Gemm, FULLY_CONNECTED)                 [b:100,c:256]                                     131,328                      reshape_249   |                 -131,328(-100.0%)      
                                                                                                                    tiny_bert_generato..dot_MatMul   | 
------ ------------------------------------------------ ----------------------- ----------------- --------------- -------------------------------- --- --------------- ---------------------- ----------------------------------------------------------------------------- 
251    reshape_251 (Reshape, RESHAPE)                   [b:1,h:100,c:256]                                                                 gemm_250   |                                        
------ ------------------------------------------------ ----------------------- ----------------- --------------- -------------------------------- --- --------------- ---------------------- ----------------------------------------------------------------------------- 
252    dense_66_bias (Placeholder, )                    [b:256]                 256/256                                                              |                 +25,600(+100.0%)       Eltwise/add_[173]                                                             
       eltwise_252 (Eltwise, ADD)                       [b:1,h:100,c:256]                                  25,600                      reshape_251   |                 -25,600(-100.0%)       
                                                                                                                                     dense_66_bias   | 
------ ------------------------------------------------ ----------------------- ----------------- --------------- -------------------------------- --- --------------- ---------------------- ----------------------------------------------------------------------------- 
253    eltwise_253 (Eltwise, ADD)                       [b:1,h:100,c:256]                                  25,600                      eltwise_230   |                 +51,200(+200.0%)       Eltwise/add_/Conversion_[174, 175]                                            
                                                                                                                                       eltwise_252   | 
------ ------------------------------------------------ ----------------------- ----------------- --------------- -------------------------------- --- --------------- ---------------------- ----------------------------------------------------------------------------- 
254    reduce_254 (Reduce, MEAN)                        [b:1,h:100,c:1]                                    51,200                      eltwise_253   | +8(+100.0%)     -25,000(-48.8%)        Reduce_/ScaleBias_/Conversion_/Conversion_[176, 177, 178, 179]                
------ ------------------------------------------------ ----------------------- ----------------- --------------- -------------------------------- --- --------------- ---------------------- ----------------------------------------------------------------------------- 
255    eltwise_255 (Eltwise, SQUARED_DIFFERENCE)        [b:1,h:100,c:256]                                 128,000                      eltwise_253   |                                        Eltwise/squared_diff_[180]                                                    
                                                                                                                                        reduce_254   | 
------ ------------------------------------------------ ----------------------- ----------------- --------------- -------------------------------- --- --------------- ---------------------- ----------------------------------------------------------------------------- 
256    reduce_256 (Reduce, MEAN)                        [b:1,h:100,c:1]                                    51,200                      eltwise_255   | +8(+100.0%)     -25,200(-49.2%)        Reduce_/ScaleBias_/Conversion_[181, 182, 183]                                 
------ ------------------------------------------------ ----------------------- ----------------- --------------- -------------------------------- --- --------------- ---------------------- ----------------------------------------------------------------------------- 
257    eltwise_257 (Eltwise, ADD)                       [b:1,h:100,c:1]                                       100                       reduce_256   | +1(+100.0%)                            Eltwise/add_[184]                                                             
                                                                                                                    tiny_bert_generato..norm_add_y   | 
------ ------------------------------------------------ ----------------------- ----------------- --------------- -------------------------------- --- --------------- ---------------------- ----------------------------------------------------------------------------- 
258    nl_258 (Nonlinearity, RSQRT)                     [b:1,h:100,c:1]                                     1,200                      eltwise_257   |                 -1,100(-91.7%)         Nonlinearity_[185]                                                            
------ ------------------------------------------------ ----------------------- ----------------- --------------- -------------------------------- --- --------------- ---------------------- ----------------------------------------------------------------------------- 
259    encoder_layer_2_la..n_21_gamma (Placeholder, )   [b:256]                 256/256                                                              |                 +100(+100.0%)          Eltwise/mul_[186]                                                             
       eltwise_259 (Eltwise, MUL)                       [b:1,h:100,c:256]                                     100                           nl_258   |                 -100(-100.0%)          
                                                                                                                    encoder_layer_2_la..n_21_gamma   | 
------ ------------------------------------------------ ----------------------- ----------------- --------------- -------------------------------- --- --------------- ---------------------- ----------------------------------------------------------------------------- 
260    eltwise_260 (Eltwise, MUL)                       [b:1,h:100,c:256]                                  25,600                      eltwise_253   |                                        Eltwise/mul_[189]                                                             
                                                                                                                                       eltwise_259   | 
------ ------------------------------------------------ ----------------------- ----------------- --------------- -------------------------------- --- --------------- ---------------------- ----------------------------------------------------------------------------- 
261    eltwise_261 (Eltwise, MUL)                       [b:1,h:100,c:256]                                     100                       reduce_254   |                                        Eltwise/mul_[187]                                                             
                                                                                                                                       eltwise_259   | 
------ ------------------------------------------------ ----------------------- ----------------- --------------- -------------------------------- --- --------------- ---------------------- ----------------------------------------------------------------------------- 
262    encoder_layer_2_la..on_21_beta (Placeholder, )   [b:256]                 256/256                                                              |                 +256(+100.0%)          Eltwise/sub_[188]                                                             
       eltwise_262 (Eltwise, SUB)                       [b:1,h:100,c:256]                                     256   encoder_layer_2_la..on_21_beta   |                 -256(-100.0%)          
                                                                                                                                       eltwise_261   | 
------ ------------------------------------------------ ----------------------- ----------------- --------------- -------------------------------- --- --------------- ---------------------- ----------------------------------------------------------------------------- 
263    eltwise_263 (Eltwise, ADD)                       [b:1,h:100,c:256]                                  25,600                      eltwise_260   |                                        Eltwise/add_[190]                                                             
                                                                                                                                       eltwise_262   | 
------ ------------------------------------------------ ----------------------- ----------------- --------------- -------------------------------- --- --------------- ---------------------- ----------------------------------------------------------------------------- 
274    reshape_274 (Reshape, RESHAPE)                   [b:100,c:256]                                                                  eltwise_263   |                                        
------ ------------------------------------------------ ----------------------- ----------------- --------------- -------------------------------- --- --------------- ---------------------- ----------------------------------------------------------------------------- 
275    tiny_bert_generato..dot_MatMul (Placeholder, )   [b:256,c:256]           65,536/65,536                                                        | +1,024(+1.6%)   +6,553,856(+100.0%)    Conv2D_[199]                                                                  
       gemm_275 (Gemm, FULLY_CONNECTED)                 [b:100,c:256]                                      65,792                      reshape_274   |                 -65,792(-100.0%)       
                                                                                                                    tiny_bert_generato..dot_MatMul   | 
------ ------------------------------------------------ ----------------------- ----------------- --------------- -------------------------------- --- --------------- ---------------------- ----------------------------------------------------------------------------- 
276    reshape_276 (Reshape, RESHAPE)                   [b:1,h:100,c:256]                                                                 gemm_275   |                                        
------ ------------------------------------------------ ----------------------- ----------------- --------------- -------------------------------- --- --------------- ---------------------- ----------------------------------------------------------------------------- 
277    encoder_layer_3_mu..se_67_bias (Placeholder, )   [b:256]                 256/256                                                              |                 +25,600(+100.0%)       Eltwise/add_[200]                                                             
       eltwise_277 (Eltwise, ADD)                       [b:1,h:100,c:256]                                  25,600                      reshape_276   |                 -25,600(-100.0%)       
                                                                                                                    encoder_layer_3_mu..se_67_bias   | 
------ ------------------------------------------------ ----------------------- ----------------- --------------- -------------------------------- --- --------------- ---------------------- ----------------------------------------------------------------------------- 
278    reshape_278 (Reshape, RESHAPE)                   [b:1,h:100,w:4,c:64]                                                           eltwise_277   |                                        
------ ------------------------------------------------ ----------------------- ----------------- --------------- -------------------------------- --- --------------- ---------------------- ----------------------------------------------------------------------------- 
279    transpose_279 (Transpose, TRANSPOSE)             [b:1,h:4,w:100,c:64]                               12,800                      reshape_278   |                 +51,200(+400.0%)       Transpose_/Conversion_[201, 202]                                              
------ ------------------------------------------------ ----------------------- ----------------- --------------- -------------------------------- --- --------------- ---------------------- ----------------------------------------------------------------------------- 
280    tiny_bert_generato..dot_MatMul (Placeholder, )   [b:256,c:256]           65,536/65,536                                                        | +1,024(+1.6%)   +6,553,856(+100.0%)    Conv2D_[195]                                                                  
       gemm_280 (Gemm, FULLY_CONNECTED)                 [b:100,c:256]                                      65,792                      reshape_274   |                 -65,792(-100.0%)       
                                                                                                                    tiny_bert_generato..dot_MatMul   | 
------ ------------------------------------------------ ----------------------- ----------------- --------------- -------------------------------- --- --------------- ---------------------- ----------------------------------------------------------------------------- 
281    reshape_281 (Reshape, RESHAPE)                   [b:1,h:100,c:256]                                                                 gemm_280   |                                        
------ ------------------------------------------------ ----------------------- ----------------- --------------- -------------------------------- --- --------------- ---------------------- ----------------------------------------------------------------------------- 
282    encoder_layer_3_mu..se_68_bias (Placeholder, )   [b:256]                 256/256                                                              |                 +25,600(+100.0%)       Eltwise/add_[196]                                                             
       eltwise_282 (Eltwise, ADD)                       [b:1,h:100,c:256]                                  25,600                      reshape_281   |                 -25,600(-100.0%)       
                                                                                                                    encoder_layer_3_mu..se_68_bias   | 
------ ------------------------------------------------ ----------------------- ----------------- --------------- -------------------------------- --- --------------- ---------------------- ----------------------------------------------------------------------------- 
283    reshape_283 (Reshape, RESHAPE)                   [b:1,h:100,w:4,c:64]                                                           eltwise_282   |                                        
------ ------------------------------------------------ ----------------------- ----------------- --------------- -------------------------------- --- --------------- ---------------------- ----------------------------------------------------------------------------- 
284    transpose_284 (Transpose, TRANSPOSE)             [b:1,h:4,w:100,c:64]                               12,800                      reshape_283   |                 -12,800(-100.0%)       
------ ------------------------------------------------ ----------------------- ----------------- --------------- -------------------------------- --- --------------- ---------------------- ----------------------------------------------------------------------------- 
285    gemm_285 (Gemm, BATCH_MATMUL)                    [b:1,h:4,w:100,c:100]                       1,024,040,000                    transpose_279   | +1(+100.0%)     +144,002(+0.0%)        Conversion_/Transpose_/Conversion_/Gemm_/Conversion_[1, 197, 198, 203, 204]   
                                                                                                                                     transpose_284   | 
------ ------------------------------------------------ ----------------------- ----------------- --------------- -------------------------------- --- --------------- ---------------------- ----------------------------------------------------------------------------- 
286    eltwise_286 (Eltwise, MUL)                       [b:1,h:4,w:100,c:100]                              40,000                         gemm_285   | +1(+100.0%)                            Eltwise/mul_[205]                                                             
                                                                                                                    tiny_bert_generato..on_11_Sqrt   | 
------ ------------------------------------------------ ----------------------- ----------------- --------------- -------------------------------- --- --------------- ---------------------- ----------------------------------------------------------------------------- 
287    nl_287 (Nonlinearity, SOFTMAX)                   [b:1,h:4,w:100,c:100]                             600,000                      eltwise_286   |                 +80,000(+13.3%)        Nonlinearity_/Conversion_[206, 207]                                           
------ ------------------------------------------------ ----------------------- ----------------- --------------- -------------------------------- --- --------------- ---------------------- ----------------------------------------------------------------------------- 
288    tiny_bert_generato..dot_MatMul (Placeholder, )   [b:256,c:256]           65,536/65,536                                                        | +1,024(+1.6%)   +6,553,856(+100.0%)    Conv2D_[191]                                                                  
       gemm_288 (Gemm, FULLY_CONNECTED)                 [b:100,c:256]                                      65,792                      reshape_274   |                 -65,792(-100.0%)       
                                                                                                                    tiny_bert_generato..dot_MatMul   | 
------ ------------------------------------------------ ----------------------- ----------------- --------------- -------------------------------- --- --------------- ---------------------- ----------------------------------------------------------------------------- 
289    reshape_289 (Reshape, RESHAPE)                   [b:1,h:100,c:256]                                                                 gemm_288   |                                        
------ ------------------------------------------------ ----------------------- ----------------- --------------- -------------------------------- --- --------------- ---------------------- ----------------------------------------------------------------------------- 
290    encoder_layer_3_mu..se_69_bias (Placeholder, )   [b:256]                 256/256                                                              |                 +25,600(+100.0%)       Eltwise/add_[192]                                                             
       eltwise_290 (Eltwise, ADD)                       [b:1,h:100,c:256]                                  25,600                      reshape_289   |                 -25,600(-100.0%)       
                                                                                                                    encoder_layer_3_mu..se_69_bias   | 
------ ------------------------------------------------ ----------------------- ----------------- --------------- -------------------------------- --- --------------- ---------------------- ----------------------------------------------------------------------------- 
291    reshape_291 (Reshape, RESHAPE)                   [b:1,h:100,w:4,c:64]                                                           eltwise_290   |                                        
------ ------------------------------------------------ ----------------------- ----------------- --------------- -------------------------------- --- --------------- ---------------------- ----------------------------------------------------------------------------- 
292    transpose_292 (Transpose, TRANSPOSE)             [b:1,h:4,w:100,c:64]                               12,800                      reshape_291   |                 +51,200(+400.0%)       Transpose_/Conversion_[193, 194]                                              
------ ------------------------------------------------ ----------------------- ----------------- --------------- -------------------------------- --- --------------- ---------------------- ----------------------------------------------------------------------------- 
293    gemm_293 (Gemm, BATCH_MATMUL)                    [b:1,h:4,w:100,c:64]                        1,024,025,600                           nl_287   | +1(+100.0%)     +51,202(+0.0%)         Conversion_/Gemm_/Conversion_[0, 208, 209]                                    
                                                                                                                                     transpose_292   | 
------ ------------------------------------------------ ----------------------- ----------------- --------------- -------------------------------- --- --------------- ---------------------- ----------------------------------------------------------------------------- 
294    transpose_294 (Transpose, TRANSPOSE)             [b:1,h:100,w:4,c:64]                               12,800                         gemm_293   |                                        Transpose_[210]                                                               
------ ------------------------------------------------ ----------------------- ----------------- --------------- -------------------------------- --- --------------- ---------------------- ----------------------------------------------------------------------------- 
295    reshape_295 (Reshape, RESHAPE)                   [b:1,h:100,c:256]                                                            transpose_294   |                                        
------ ------------------------------------------------ ----------------------- ----------------- --------------- -------------------------------- --- --------------- ---------------------- ----------------------------------------------------------------------------- 
303    reshape_303 (Reshape, RESHAPE)                   [b:100,c:256]                                                                transpose_294   |                                        
------ ------------------------------------------------ ----------------------- ----------------- --------------- -------------------------------- --- --------------- ---------------------- ----------------------------------------------------------------------------- 
304    tiny_bert_generato..dot_MatMul (Placeholder, )   [b:256,c:256]           65,536/65,536                                                        | +1,024(+1.6%)   +6,553,856(+100.0%)    Conv2D_[211]                                                                  
       gemm_304 (Gemm, FULLY_CONNECTED)                 [b:100,c:256]                                      65,792                      reshape_303   |                 -65,792(-100.0%)       
                                                                                                                    tiny_bert_generato..dot_MatMul   | 
------ ------------------------------------------------ ----------------------- ----------------- --------------- -------------------------------- --- --------------- ---------------------- ----------------------------------------------------------------------------- 
305    reshape_305 (Reshape, RESHAPE)                   [b:1,h:100,c:256]                                                                 gemm_304   |                                        
------ ------------------------------------------------ ----------------------- ----------------- --------------- -------------------------------- --- --------------- ---------------------- ----------------------------------------------------------------------------- 
306    encoder_layer_3_mu..se_70_bias (Placeholder, )   [b:256]                 256/256                                                              |                 +25,600(+100.0%)       Eltwise/add_[212]                                                             
       eltwise_306 (Eltwise, ADD)                       [b:1,h:100,c:256]                                  25,600                      reshape_305   |                 -25,600(-100.0%)       
                                                                                                                    encoder_layer_3_mu..se_70_bias   | 
------ ------------------------------------------------ ----------------------- ----------------- --------------- -------------------------------- --- --------------- ---------------------- ----------------------------------------------------------------------------- 
307    eltwise_307 (Eltwise, ADD)                       [b:1,h:100,c:256]                                  25,600                      eltwise_263   |                 +51,200(+200.0%)       Eltwise/add_/Conversion_[213, 214]                                            
                                                                                                                                       eltwise_306   | 
------ ------------------------------------------------ ----------------------- ----------------- --------------- -------------------------------- --- --------------- ---------------------- ----------------------------------------------------------------------------- 
308    reduce_308 (Reduce, MEAN)                        [b:1,h:100,c:1]                                    51,200                      eltwise_307   | +8(+100.0%)     -25,000(-48.8%)        Reduce_/ScaleBias_/Conversion_/Conversion_[215, 216, 217, 218]                
------ ------------------------------------------------ ----------------------- ----------------- --------------- -------------------------------- --- --------------- ---------------------- ----------------------------------------------------------------------------- 
309    eltwise_309 (Eltwise, SQUARED_DIFFERENCE)        [b:1,h:100,c:256]                                 128,000                      eltwise_307   |                                        Eltwise/squared_diff_[219]                                                    
                                                                                                                                        reduce_308   | 
------ ------------------------------------------------ ----------------------- ----------------- --------------- -------------------------------- --- --------------- ---------------------- ----------------------------------------------------------------------------- 
310    reduce_310 (Reduce, MEAN)                        [b:1,h:100,c:1]                                    51,200                      eltwise_309   | +8(+100.0%)     -25,200(-49.2%)        Reduce_/ScaleBias_/Conversion_[220, 221, 222]                                 
------ ------------------------------------------------ ----------------------- ----------------- --------------- -------------------------------- --- --------------- ---------------------- ----------------------------------------------------------------------------- 
311    eltwise_311 (Eltwise, ADD)                       [b:1,h:100,c:1]                                       100                       reduce_310   | +1(+100.0%)                            Eltwise/add_[223]                                                             
                                                                                                                    tiny_bert_generato..norm_add_y   | 
------ ------------------------------------------------ ----------------------- ----------------- --------------- -------------------------------- --- --------------- ---------------------- ----------------------------------------------------------------------------- 
312    nl_312 (Nonlinearity, RSQRT)                     [b:1,h:100,c:1]                                     1,200                      eltwise_311   |                 -1,100(-91.7%)         Nonlinearity_[224]                                                            
------ ------------------------------------------------ ----------------------- ----------------- --------------- -------------------------------- --- --------------- ---------------------- ----------------------------------------------------------------------------- 
313    encoder_layer_3_la..n_22_gamma (Placeholder, )   [b:256]                 256/256                                                              |                 +100(+100.0%)          Eltwise/mul_[225]                                                             
       eltwise_313 (Eltwise, MUL)                       [b:1,h:100,c:256]                                     100                           nl_312   |                 -100(-100.0%)          
                                                                                                                    encoder_layer_3_la..n_22_gamma   | 
------ ------------------------------------------------ ----------------------- ----------------- --------------- -------------------------------- --- --------------- ---------------------- ----------------------------------------------------------------------------- 
314    eltwise_314 (Eltwise, MUL)                       [b:1,h:100,c:256]                                  25,600                      eltwise_307   |                                        Eltwise/mul_[228]                                                             
                                                                                                                                       eltwise_313   | 
------ ------------------------------------------------ ----------------------- ----------------- --------------- -------------------------------- --- --------------- ---------------------- ----------------------------------------------------------------------------- 
315    eltwise_315 (Eltwise, MUL)                       [b:1,h:100,c:256]                                     100                       reduce_308   |                                        Eltwise/mul_[226]                                                             
                                                                                                                                       eltwise_313   | 
------ ------------------------------------------------ ----------------------- ----------------- --------------- -------------------------------- --- --------------- ---------------------- ----------------------------------------------------------------------------- 
316    encoder_layer_3_la..on_22_beta (Placeholder, )   [b:256]                 256/256                                                              |                 +256(+100.0%)          Eltwise/sub_[227]                                                             
       eltwise_316 (Eltwise, SUB)                       [b:1,h:100,c:256]                                     256   encoder_layer_3_la..on_22_beta   |                 -256(-100.0%)          
                                                                                                                                       eltwise_315   | 
------ ------------------------------------------------ ----------------------- ----------------- --------------- -------------------------------- --- --------------- ---------------------- ----------------------------------------------------------------------------- 
317    eltwise_317 (Eltwise, ADD)                       [b:1,h:100,c:256]                                  25,600                      eltwise_314   |                                        Eltwise/add_[229]                                                             
                                                                                                                                       eltwise_316   | 
------ ------------------------------------------------ ----------------------- ----------------- --------------- -------------------------------- --- --------------- ---------------------- ----------------------------------------------------------------------------- 
325    reshape_325 (Reshape, RESHAPE)                   [b:100,c:256]                                                                  eltwise_317   |                                        
------ ------------------------------------------------ ----------------------- ----------------- --------------- -------------------------------- --- --------------- ---------------------- ----------------------------------------------------------------------------- 
326    tiny_bert_generato..dot_MatMul (Placeholder, )   [b:512,c:256]           131,072/131,072                                                      | +2,048(+1.6%)   +13,107,712(+100.0%)   Conv2D_[230]                                                                  
       gemm_326 (Gemm, FULLY_CONNECTED)                 [b:100,c:512]                                     131,584                      reshape_325   |                 -131,584(-100.0%)      
                                                                                                                    tiny_bert_generato..dot_MatMul   | 
------ ------------------------------------------------ ----------------------- ----------------- --------------- -------------------------------- --- --------------- ---------------------- ----------------------------------------------------------------------------- 
327    reshape_327 (Reshape, RESHAPE)                   [b:1,h:100,c:512]                                                                 gemm_326   |                                        
------ ------------------------------------------------ ----------------------- ----------------- --------------- -------------------------------- --- --------------- ---------------------- ----------------------------------------------------------------------------- 
328    dense_71_bias (Placeholder, )                    [b:512]                 512/512                                                              |                 +51,200(+100.0%)       Eltwise/add_[231]                                                             
       eltwise_328 (Eltwise, ADD)                       [b:1,h:100,c:512]                                  51,200                      reshape_327   |                 -51,200(-100.0%)       
                                                                                                                                     dense_71_bias   | 
       nl_328_nl (Nonlinearity, ADD)                    [b:1,h:100,c:512]                                  51,200                      eltwise_328   |                 -51,200(-100.0%)       
------ ------------------------------------------------ ----------------------- ----------------- --------------- -------------------------------- --- --------------- ---------------------- ----------------------------------------------------------------------------- 
336    reshape_336 (Reshape, RESHAPE)                   [b:100,c:512]                                                                    nl_328_nl   |                                        
------ ------------------------------------------------ ----------------------- ----------------- --------------- -------------------------------- --- --------------- ---------------------- ----------------------------------------------------------------------------- 
337    tiny_bert_generato..dot_MatMul (Placeholder, )   [b:256,c:512]           131,072/131,072                                                      | +1,024(+0.8%)   +13,107,456(+100.0%)   Conv2D_[232]                                                                  
       gemm_337 (Gemm, FULLY_CONNECTED)                 [b:100,c:256]                                     131,328                      reshape_336   |                 -131,328(-100.0%)      
                                                                                                                    tiny_bert_generato..dot_MatMul   | 
------ ------------------------------------------------ ----------------------- ----------------- --------------- -------------------------------- --- --------------- ---------------------- ----------------------------------------------------------------------------- 
338    reshape_338 (Reshape, RESHAPE)                   [b:1,h:100,c:256]                                                                 gemm_337   |                                        
------ ------------------------------------------------ ----------------------- ----------------- --------------- -------------------------------- --- --------------- ---------------------- ----------------------------------------------------------------------------- 
339    dense_72_bias (Placeholder, )                    [b:256]                 256/256                                                              |                 +25,600(+100.0%)       Eltwise/add_[233]                                                             
       eltwise_339 (Eltwise, ADD)                       [b:1,h:100,c:256]                                  25,600                      reshape_338   |                 -25,600(-100.0%)       
                                                                                                                                     dense_72_bias   | 
------ ------------------------------------------------ ----------------------- ----------------- --------------- -------------------------------- --- --------------- ---------------------- ----------------------------------------------------------------------------- 
340    eltwise_340 (Eltwise, ADD)                       [b:1,h:100,c:256]                                  25,600                      eltwise_317   |                 +51,200(+200.0%)       Eltwise/add_/Conversion_[234, 235]                                            
                                                                                                                                       eltwise_339   | 
------ ------------------------------------------------ ----------------------- ----------------- --------------- -------------------------------- --- --------------- ---------------------- ----------------------------------------------------------------------------- 
341    reduce_341 (Reduce, MEAN)                        [b:1,h:100,c:1]                                    51,200                      eltwise_340   | +8(+100.0%)     -25,000(-48.8%)        Reduce_/ScaleBias_/Conversion_/Conversion_[236, 237, 238, 239]                
------ ------------------------------------------------ ----------------------- ----------------- --------------- -------------------------------- --- --------------- ---------------------- ----------------------------------------------------------------------------- 
342    eltwise_342 (Eltwise, SQUARED_DIFFERENCE)        [b:1,h:100,c:256]                                 128,000                      eltwise_340   |                                        Eltwise/squared_diff_[240]                                                    
                                                                                                                                        reduce_341   | 
…
                                                                                                                                  W: gemm_359_weights                                                                                                                         int8(66x1x1x256) (245)    
                                                                                                                                  W: gemm_359_bias                                                                                                                            int32(66) (242)           
                                                                                                                                  O: gemm_359_output                                                                                                                          int8(1x100x1x66) (243)    
------ ---------------------------------------------------------------------- ----- ----------------------- ------------ -------- ------------------------------------------------------------------------------------------------------------------------------------------- ------------------------- 
252    eltwise_361                                                            361   Eltwise/add             6600         66       I: gemm_359_output                                                                                                                          int8(1x100x1x66) (243)    
                                                                                                                                  W: dense_24_bias_3D                                                                                                                         int8(1x66) (0)            
                                                                                                                                  O: eltwise_361_output                                                                                                                       int8(1x100x66) (90)       
------ ---------------------------------------------------------------------- ----- ----------------------- ------------ -------- ------------------------------------------------------------------------------------------------------------------------------------------- ------------------------- 



Number of operations per c-layer
------- ------ --------------------------------------------- --------------- -------------- 
c_id    m_id   name (type)                                               #op           type 
------- ------ --------------------------------------------- --------------- -------------- 
0       293    gemm_293_bias_0_conversion (Conversion)                     2     smul_s8_s8 
1       285    gemm_285_bias_0_2_..conversion (Conversion)                 2     smul_s8_s8 
2       206    gemm_206_bias_0_2_..conversion (Conversion)                 2     smul_s8_s8 
3       198    gemm_198_bias_0_2_..conversion (Conversion)                 2     smul_s8_s8 
4       119    gemm_119_bias_0_2_..conversion (Conversion)                 2     smul_s8_s8 
5       111    gemm_111_bias_0_2_..conversion (Conversion)                 2     smul_s8_s8 
6       32     gemm_32_bias_0_2_g..conversion (Conversion)                 2     smul_s8_s8 
7       24     gemm_24_bias_0_2_g..conversion (Conversion)                 2     smul_s8_s8 
8       0      gather_0 (Gather)                                           0    smul_s32_s8 
9       1      eltwise_1 (Eltwise/mul)                                25,600       op_s8_s8 
10      2      eltwise_2 (Eltwise/add)                                25,600       op_s8_s8 
11      27     gemm_27 (Conv2D)                                    6,553,856     smul_s8_s8 
12      29     eltwise_29 (Eltwise/add)                               25,600       op_s8_s8 
13      31     transpose_31 (Transpose)                               12,800     smul_s8_s8 
14      31     transpose_31_0_1_g..conversion (Conversion)            51,200    smul_s8_f32 
15      19     gemm_19 (Conv2D)                                    6,553,856     smul_s8_s8 
16      21     eltwise_21 (Eltwise/add)                               25,600       op_s8_s8 
17      24     transpose_bgemm_24_out (Transpose)                     12,800     smul_s8_s8 
18      24     transpose_bgemm_24..conversion (Conversion)            51,200    smul_s8_f32 
19      14     gemm_14 (Conv2D)                                    6,553,856     smul_s8_s8 
20      16     eltwise_16 (Eltwise/add)                               25,600       op_s8_s8 
21      18     transpose_18 (Transpose)                               12,800     smul_s8_s8 
22      18     transpose_18_0_0_g..conversion (Conversion)            51,200    smul_s8_f32 
23      24     gemm_24 (Gemm)                                  1,024,040,000   smul_f32_f32 
24      24     gemm_24_0_0_eltwis..conversion (Conversion)            80,000    smul_f32_s8 
25      25     eltwise_25 (Eltwise/mul)                               40,000       op_s8_s8 
26      26     nl_26 (Nonlinearity)                                  600,000       op_s8_s8 
27      26     nl_26_0_0_gemm_32_conversion (Conversion)              80,000    smul_s8_f32 
28      32     gemm_32 (Gemm)                                  1,024,025,600   smul_f32_f32 
29      32     gemm_32_0_0_transp..conversion (Conversion)            51,200    smul_f32_s8 
30      33     transpose_33 (Transpose)                               12,800     smul_s8_s8 
31      43     gemm_43 (Conv2D)                                    6,553,856     smul_s8_s8 
32      45     eltwise_45 (Eltwise/add)                               25,600       op_s8_s8 
33      46     eltwise_46 (Eltwise/add)                               25,600       op_s8_s8 
34      46     eltwise_46_0_0_red..conversion (Conversion)            51,200    smul_s8_f32 
35      47     reduce_47 (Reduce)                                     25,600   smul_f32_f32 
36      47     reduce_47_Mul (ScaleBias)                                 200   smul_f32_f32 
37      47     reduce_47_Mul_0_1_..conversion (Conversion)               200    smul_f32_s8 
38      47     reduce_47_Mul_0_1_..conversion (Conversion)               200    smul_s8_f32 
39      48     eltwise_48 (Eltwise/squared_diff)                     128,000     op_f32_f32 
40      49     reduce_49 (Reduce)                                     25,600   smul_f32_f32 
41      49     reduce_49_Mul (ScaleBias)                                 200   smul_f32_f32 
42      49     reduce_49_Mul_0_0_..conversion (Conversion)               200    smul_f32_s8 
43      50     eltwise_50 (Eltwise/add)                                  100       op_s8_s8 
44      51     nl_51 (Nonlinearity)                                      100       op_s8_s8 
45      52     eltwise_52 (Eltwise/mul)                                  100       op_s8_s8 
46      54     eltwise_54 (Eltwise/mul)                                  100       op_s8_s8 
47      55     eltwise_55 (Eltwise/sub)                                  256       op_s8_s8 
48      53     eltwise_53 (Eltwise/mul)                               25,600       op_s8_s8 
49      56     eltwise_56 (Eltwise/add)                               25,600       op_s8_s8 
50      65     gemm_65 (Conv2D)                                   13,107,712     smul_s8_s8 
51      67     eltwise_67 (Eltwise/add)                               51,200       op_s8_s8 
52      76     gemm_76 (Conv2D)                                   13,107,456     smul_s8_s8 
53      78     eltwise_78 (Eltwise/add)                               25,600       op_s8_s8 
54      79     eltwise_79 (Eltwise/add)                               25,600       op_s8_s8 
55      79     eltwise_79_0_0_red..conversion (Conversion)            51,200    smul_s8_f32 
56      80     reduce_80 (Reduce)                                     25,600   smul_f32_f32 
57      80     reduce_80_Mul (ScaleBias)                                 200   smul_f32_f32 
58      80     reduce_80_Mul_0_1_..conversion (Conversion)               200    smul_f32_s8 
59      80     reduce_80_Mul_0_1_..conversion (Conversion)               200    smul_s8_f32 
60      81     eltwise_81 (Eltwise/squared_diff)                     128,000     op_f32_f32 
61      82     reduce_82 (Reduce)                                     25,600   smul_f32_f32 
62      82     reduce_82_Mul (ScaleBias)                                 200   smul_f32_f32 
63      82     reduce_82_Mul_0_0_..conversion (Conversion)               200    smul_f32_s8 
64      83     eltwise_83 (Eltwise/add)                                  100       op_s8_s8 
65      84     nl_84 (Nonlinearity)                                      100       op_s8_s8 
66      85     eltwise_85 (Eltwise/mul)                                  100       op_s8_s8 
67      87     eltwise_87 (Eltwise/mul)                                  100       op_s8_s8 
68      88     eltwise_88 (Eltwise/sub)                                  256       op_s8_s8 
69      86     eltwise_86 (Eltwise/mul)                               25,600       op_s8_s8 
70      89     eltwise_89 (Eltwise/add)                               25,600       op_s8_s8 
71      114    gemm_114 (Conv2D)                                   6,553,856     smul_s8_s8 
72      116    eltwise_116 (Eltwise/add)                              25,600       op_s8_s8 
73      118    transpose_118 (Transpose)                              12,800     smul_s8_s8 
74      118    transpose_118_0_1_..conversion (Conversion)            51,200    smul_s8_f32 
75      106    gemm_106 (Conv2D)                                   6,553,856     smul_s8_s8 
76      108    eltwise_108 (Eltwise/add)                              25,600       op_s8_s8 
77      111    transpose_bgemm_111_out (Transpose)                    12,800     smul_s8_s8 
78      111    transpose_bgemm_11..conversion (Conversion)            51,200    smul_s8_f32 
79      101    gemm_101 (Conv2D)                                   6,553,856     smul_s8_s8 
80      103    eltwise_103 (Eltwise/add)                              25,600       op_s8_s8 
81      105    transpose_105 (Transpose)                              12,800     smul_s8_s8 
82      105    transpose_105_0_0_..conversion (Conversion)            51,200    smul_s8_f32 
83      111    gemm_111 (Gemm)                                 1,024,040,000   smul_f32_f32 
84      111    gemm_111_0_0_eltwi..conversion (Conversion)            80,000    smul_f32_s8 
85      112    eltwise_112 (Eltwise/mul)                              40,000       op_s8_s8 
86      113    nl_113 (Nonlinearity)                                 600,000       op_s8_s8 
87      113    nl_113_0_0_gemm_119_conversion (Conversion)            80,000    smul_s8_f32 
88      119    gemm_119 (Gemm)                                 1,024,025,600   smul_f32_f32 
89      119    gemm_119_0_0_trans..conversion (Conversion)            51,200    smul_f32_s8 
90      120    transpose_120 (Transpose)                              12,800     smul_s8_s8 
91      130    gemm_130 (Conv2D)                                   6,553,856     smul_s8_s8 
92      132    eltwise_132 (Eltwise/add)                              25,600       op_s8_s8 
93      133    eltwise_133 (Eltwise/add)                              25,600       op_s8_s8 
94      133    eltwise_133_0_0_re..conversion (Conversion)            51,200    smul_s8_f32 
95      134    reduce_134 (Reduce)                                    25,600   smul_f32_f32 
96      134    reduce_134_Mul (ScaleBias)                                200   smul_f32_f32 
97      134    reduce_134_Mul_0_1..conversion (Conversion)               200    smul_f32_s8 
98      134    reduce_134_Mul_0_1..conversion (Conversion)               200    smul_s8_f32 
99      135    eltwise_135 (Eltwise/squared_diff)                    128,000     op_f32_f32 
100     136    reduce_136 (Reduce)                                    25,600   smul_f32_f32 
101     136    reduce_136_Mul (ScaleBias)                                200   smul_f32_f32 
102     136    reduce_136_Mul_0_0..conversion (Conversion)               200    smul_f32_s8 
103     137    eltwise_137 (Eltwise/add)                                 100       op_s8_s8 
104     138    nl_138 (Nonlinearity)                                     100       op_s8_s8 
105     139    eltwise_139 (Eltwise/mul)                                 100       op_s8_s8 
106     141    eltwise_141 (Eltwise/mul)                                 100       op_s8_s8 
107     142    eltwise_142 (Eltwise/sub)                                 256       op_s8_s8 
108     140    eltwise_140 (Eltwise/mul)                              25,600       op_s8_s8 
109     143    eltwise_143 (Eltwise/add)                              25,600       op_s8_s8 
110     152    gemm_152 (Conv2D)                                  13,107,712     smul_s8_s8 
111     154    eltwise_154 (Eltwise/add)                              51,200       op_s8_s8 
112     163    gemm_163 (Conv2D)                                  13,107,456     smul_s8_s8 
113     165    eltwise_165 (Eltwise/add)                              25,600       op_s8_s8 
114     166    eltwise_166 (Eltwise/add)                              25,600       op_s8_s8 
115     166    eltwise_166_0_0_re..conversion (Conversion)            51,200    smul_s8_f32 
116     167    reduce_167 (Reduce)                                    25,600   smul_f32_f32 
117     167    reduce_167_Mul (ScaleBias)                                200   smul_f32_f32 
118     167    reduce_167_Mul_0_1..conversion (Conversion)               200    smul_f32_s8 
119     167    reduce_167_Mul_0_1..conversion (Conversion)               200    smul_s8_f32 
120     168    eltwise_168 (Eltwise/squared_diff)                    128,000     op_f32_f32 
121     169    reduce_169 (Reduce)                                    25,600   smul_f32_f32 
122     169    reduce_169_Mul (ScaleBias)                                200   smul_f32_f32 
123     169    reduce_169_Mul_0_0..conversion (Conversion)               200    smul_f32_s8 
124     170    eltwise_170 (Eltwise/add)                                 100       op_s8_s8 
125     171    nl_171 (Nonlinearity)                                     100       op_s8_s8 
126     172    eltwise_172 (Eltwise/mul)                                 100       op_s8_s8 
127     174    eltwise_174 (Eltwise/mul)                                 100       op_s8_s8 
128     175    eltwise_175 (Eltwise/sub)                                 256       op_s8_s8 
129     173    eltwise_173 (Eltwise/mul)                              25,600       op_s8_s8 
130     176    eltwise_176 (Eltwise/add)                              25,600       op_s8_s8 
131     201    gemm_201 (Conv2D)                                   6,553,856     smul_s8_s8 
132     203    eltwise_203 (Eltwise/add)                              25,600       op_s8_s8 
133     205    transpose_205 (Transpose)                              12,800     smul_s8_s8 
134     205    transpose_205_0_1_..conversion (Conversion)            51,200    smul_s8_f32 
135     193    gemm_193 (Conv2D)                                   6,553,856     smul_s8_s8 
136     195    eltwise_195 (Eltwise/add)                              25,600       op_s8_s8 
137     198    transpose_bgemm_198_out (Transpose)                    12,800     smul_s8_s8 
138     198    transpose_bgemm_19..conversion (Conversion)            51,200    smul_s8_f32 
139     188    gemm_188 (Conv2D)                                   6,553,856     smul_s8_s8 
140     190    eltwise_190 (Eltwise/add)                              25,600       op_s8_s8 
141     192    transpose_192 (Transpose)                              12,800     smul_s8_s8 
142     192    transpose_192_0_0_..conversion (Conversion)            51,200    smul_s8_f32 
143     198    gemm_198 (Gemm)                                 1,024,040,000   smul_f32_f32 
144     198    gemm_198_0_0_eltwi..conversion (Conversion)            80,000    smul_f32_s8 
145     199    eltwise_199 (Eltwise/mul)                              40,000       op_s8_s8 
146     200    nl_200 (Nonlinearity)                                 600,000       op_s8_s8 
147     200    nl_200_0_0_gemm_206_conversion (Conversion)            80,000    smul_s8_f32 
148     206    gemm_206 (Gemm)                                 1,024,025,600   smul_f32_f32 
149     206    gemm_206_0_0_trans..conversion (Conversion)            51,200    smul_f32_s8 
150     207    transpose_207 (Transpose)                              12,800     smul_s8_s8 
151     217    gemm_217 (Conv2D)                                   6,553,856     smul_s8_s8 
152     219    eltwise_219 (Eltwise/add)                              25,600       op_s8_s8 
153     220    eltwise_220 (Eltwise/add)                              25,600       op_s8_s8 
154     220    eltwise_220_0_0_re..conversion (Conversion)            51,200    smul_s8_f32 
155     221    reduce_221 (Reduce)                                    25,600   smul_f32_f32 
156     221    reduce_221_Mul (ScaleBias)                                200   smul_f32_f32 
157     221    reduce_221_Mul_0_1..conversion (Conversion)               200    smul_f32_s8 
158     221    reduce_221_Mul_0_1..conversion (Conversion)               200    smul_s8_f32 
159     222    eltwise_222 (Eltwise/squared_diff)                    128,000     op_f32_f32 
160     223    reduce_223 (Reduce)                                    25,600   smul_f32_f32 
161     223    reduce_223_Mul (ScaleBias)                                200   smul_f32_f32 
162     223    reduce_223_Mul_0_0..conversion (Conversion)               200    smul_f32_s8 
163     224    eltwise_224 (Eltwise/add)                                 100       op_s8_s8 
164     225    nl_225 (Nonlinearity)                                     100       op_s8_s8 
165     226    eltwise_226 (Eltwise/mul)                                 100       op_s8_s8 
166     228    eltwise_228 (Eltwise/mul)                                 100       op_s8_s8 
167     229    eltwise_229 (Eltwise/sub)                                 256       op_s8_s8 
168     227    eltwise_227 (Eltwise/mul)                              25,600       op_s8_s8 
169     230    eltwise_230 (Eltwise/add)                              25,600       op_s8_s8 
170     239    gemm_239 (Conv2D)                                  13,107,712     smul_s8_s8 
171     241    eltwise_241 (Eltwise/add)                              51,200       op_s8_s8 
172     250    gemm_250 (Conv2D)                                  13,107,456     smul_s8_s8 
173     252    eltwise_252 (Eltwise/add)                              25,600       op_s8_s8 
174     253    eltwise_253 (Eltwise/add)                              25,600       op_s8_s8 
175     253    eltwise_253_0_0_re..conversion (Conversion)            51,200    smul_s8_f32 
176     254    reduce_254 (Reduce)                                    25,600   smul_f32_f32 
177     254    reduce_254_Mul (ScaleBias)                                200   smul_f32_f32 
178     254    reduce_254_Mul_0_1..conversion (Conversion)               200    smul_f32_s8 
179     254    reduce_254_Mul_0_1..conversion (Conversion)               200    smul_s8_f32 
180     255    eltwise_255 (Eltwise/squared_diff)                    128,000     op_f32_f32 
181     256    reduce_256 (Reduce)                                    25,600   smul_f32_f32 
182     256    reduce_256_Mul (ScaleBias)                                200   smul_f32_f32 
183     256    reduce_256_Mul_0_0..conversion (Conversion)               200    smul_f32_s8 
184     257    eltwise_257 (Eltwise/add)                                 100       op_s8_s8 
185     258    nl_258 (Nonlinearity)                                     100       op_s8_s8 
186     259    eltwise_259 (Eltwise/mul)                                 100       op_s8_s8 
187     261    eltwise_261 (Eltwise/mul)                                 100       op_s8_s8 
188     262    eltwise_262 (Eltwise/sub)                                 256       op_s8_s8 
189     260    eltwise_260 (Eltwise/mul)                              25,600       op_s8_s8 
190     263    eltwise_263 (Eltwise/add)                              25,600       op_s8_s8 
191     288    gemm_288 (Conv2D)                                   6,553,856     smul_s8_s8 
192     290    eltwise_290 (Eltwise/add)                              25,600       op_s8_s8 
193     292    transpose_292 (Transpose)                              12,800     smul_s8_s8 
194     292    transpose_292_0_1_..conversion (Conversion)            51,200    smul_s8_f32 
195     280    gemm_280 (Conv2D)                                   6,553,856     smul_s8_s8 
196     282    eltwise_282 (Eltwise/add)                              25,600       op_s8_s8 
197     285    transpose_bgemm_285_out (Transpose)                    12,800     smul_s8_s8 
198     285    transpose_bgemm_28..conversion (Conversion)            51,200    smul_s8_f32 
199     275    gemm_275 (Conv2D)                                   6,553,856     smul_s8_s8 
200     277    eltwise_277 (Eltwise/add)                              25,600       op_s8_s8 
201     279    transpose_279 (Transpose)                              12,800     smul_s8_s8 
202     279    transpose_279_0_0_..conversion (Conversion)            51,200    smul_s8_f32 
203     285    gemm_285 (Gemm)                                 1,024,040,000   smul_f32_f32 
204     285    gemm_285_0_0_eltwi..conversion (Conversion)            80,000    smul_f32_s8 
205     286    eltwise_286 (Eltwise/mul)                              40,000       op_s8_s8 
206     287    nl_287 (Nonlinearity)                                 600,000       op_s8_s8 
207     287    nl_287_0_0_gemm_293_conversion (Conversion)            80,000    smul_s8_f32 
208     293    gemm_293 (Gemm)                                 1,024,025,600   smul_f32_f32 
209     293    gemm_293_0_0_trans..conversion (Conversion)            51,200    smul_f32_s8 
210     294    transpose_294 (Transpose)                              12,800     smul_s8_s8 
211     304    gemm_304 (Conv2D)                                   6,553,856     smul_s8_s8 
212     306    eltwise_306 (Eltwise/add)                              25,600       op_s8_s8 
213     307    eltwise_307 (Eltwise/add)                              25,600       op_s8_s8 
214     307    eltwise_307_0_0_re..conversion (Conversion)            51,200    smul_s8_f32 
215     308    reduce_308 (Reduce)                                    25,600   smul_f32_f32 
216     308    reduce_308_Mul (ScaleBias)                                200   smul_f32_f32 
217     308    reduce_308_Mul_0_1..conversion (Conversion)               200    smul_f32_s8 
218     308    reduce_308_Mul_0_1..conversion (Conversion)               200    smul_s8_f32 
219     309    eltwise_309 (Eltwise/squared_diff)                    128,000     op_f32_f32 
220     310    reduce_310 (Reduce)                                    25,600   smul_f32_f32 
221     310    reduce_310_Mul (ScaleBias)                                200   smul_f32_f32 
222     310    reduce_310_Mul_0_0..conversion (Conversion)               200    smul_f32_s8 
223     311    eltwise_311 (Eltwise/add)                                 100       op_s8_s8 
224     312    nl_312 (Nonlinearity)                                     100       op_s8_s8 
225     313    eltwise_313 (Eltwise/mul)                                 100       op_s8_s8 
226     315    eltwise_315 (Eltwise/mul)                                 100       op_s8_s8 
227     316    eltwise_316 (Eltwise/sub)                                 256       op_s8_s8 
228     314    eltwise_314 (Eltwise/mul)                              25,600       op_s8_s8 
229     317    eltwise_317 (Eltwise/add)                              25,600       op_s8_s8 
230     326    gemm_326 (Conv2D)                                  13,107,712     smul_s8_s8 
231     328    eltwise_328 (Eltwise/add)                              51,200       op_s8_s8 
232     337    gemm_337 (Conv2D)                                  13,107,456     smul_s8_s8 
233     339    eltwise_339 (Eltwise/add)                              25,600       op_s8_s8 
234     340    eltwise_340 (Eltwise/add)                              25,600       op_s8_s8 
235     340    eltwise_340_0_0_re..conversion (Conversion)            51,200    smul_s8_f32 
236     341    reduce_341 (Reduce)                                    25,600   smul_f32_f32 
237     341    reduce_341_Mul (ScaleBias)                                200   smul_f32_f32 
238     341    reduce_341_Mul_0_1..conversion (Conversion)               200    smul_f32_s8 
239     341    reduce_341_Mul_0_1..conversion (Conversion)               200    smul_s8_f32 
240     342    eltwise_342 (Eltwise/squared_diff)                    128,000     op_f32_f32 
241     343    reduce_343 (Reduce)                                    25,600   smul_f32_f32 
242     343    reduce_343_Mul (ScaleBias)                                200   smul_f32_f32 
243     343    reduce_343_Mul_0_0..conversion (Conversion)               200    smul_f32_s8 
244     344    eltwise_344 (Eltwise/add)                                 100       op_s8_s8 
245     345    nl_345 (Nonlinearity)                                     100       op_s8_s8 
246     346    eltwise_346 (Eltwise/mul)                                 100       op_s8_s8 
247     348    eltwise_348 (Eltwise/mul)                                 100       op_s8_s8 
248     349    eltwise_349 (Eltwise/sub)                                 256       op_s8_s8 
249     347    eltwise_347 (Eltwise/mul)                              25,600       op_s8_s8 
250     350    eltwise_350 (Eltwise/add)                              25,600       op_s8_s8 
251     359    gemm_359 (Conv2D)                                   1,689,666     smul_s8_s8 
252     361    eltwise_361 (Eltwise/add)                               6,600       op_s8_s8 
------- ------ --------------------------------------------- --------------- -------------- 
total                                                          8,411,143,898 

Number of operation types
---------------- --------------- ----------- 
operation type                 #           % 
---------------- --------------- ----------- 
smul_s8_s8           211,616,850        2.5% 
smul_s32_s8                    0        0.0% 
op_s8_s8               3,954,248        0.0% 
smul_s8_f32            1,345,600        0.0% 
smul_f32_f32       8,192,675,200       97.4% 
smul_f32_s8              528,000        0.0% 
op_f32_f32             1,024,000        0.0% 

Complexity report (model)
------ ------------------------------------------ ------------------------- ------------------------- ------------------------- 
m_id   name                                       c_macc                    c_rom                     c_id                      
------ ------------------------------------------ ------------------------- ------------------------- ------------------------- 
0      embedding_embeddings                       |                  0.0%   ||                 0.8%   [8]                       
1      tiny_bert_generator_tf_math_..iply_Mul_y   |                  0.0%   |                  0.0%   [9]                       
2      tiny_bert_generator_tf___ope..rs___add_y   |                  0.0%   |||                1.2%   [10]                      
14     tiny_bert_generator_encoder_..dot_MatMul   |                  0.1%   ||||||||           3.1%   [19]                      
16     encoder_layer_multi_head_att..se_49_bias   |                  0.0%   |                  0.0%   [20]                      
18     transpose_18                               |                  0.0%   |                  0.0%   [21, 22]                  
19     tiny_bert_generator_encoder_..dot_MatMul   |                  0.1%   ||||||||           3.1%   [15]                      
21     encoder_layer_multi_head_att..se_50_bias   |                  0.0%   |                  0.0%   [16]                      
24     gemm_24                                    ||||||||||||||||  12.2%   |                  0.0%   [7, 17, 18, 23, 24]       
25     tiny_bert_generator_encoder_..on_11_Sqrt   |                  0.0%   |                  0.0%   [25]                      
26     nl_26                                      |                  0.0%   |                  0.0%   [26, 27]                  
27     tiny_bert_generator_encoder_..dot_MatMul   |                  0.1%   ||||||||           3.1%   [11]                      
29     encoder_layer_multi_head_att..se_51_bias   |                  0.0%   |                  0.0%   [12]                      
31     transpose_31                               |                  0.0%   |                  0.0%   [13, 14]                  
32     gemm_32                                    |||||||||||||||   12.2%   |                  0.0%   [6, 28, 29]               
33     transpose_33                               |                  0.0%   |                  0.0%   [30]                      
43     tiny_bert_generator_encoder_..dot_MatMul   |                  0.1%   ||||||||           3.1%   [31]                      
45     encoder_layer_multi_head_att..se_52_bias   |                  0.0%   |                  0.0%   [32]                      
46     eltwise_46                                 |                  0.0%   |                  0.0%   [33, 34]                  
47     reduce_47                                  |                  0.0%   |                  0.0%   [35, 36, 37, 38]          
48     eltwise_48                                 |                  0.0%   |                  0.0%   [39]                      
49     reduce_49                                  |                  0.0%   |                  0.0%   [40, 41, 42]              
50     tiny_bert_generator_encoder_..norm_add_y   |                  0.0%   |                  0.0%   [43]                      
51     nl_51                                      |                  0.0%   |                  0.0%   [44]                      
52     encoder_layer_layer_normaliz..n_16_gamma   |                  0.0%   |                  0.0%   [45]                      
53     eltwise_53                                 |                  0.0%   |                  0.0%   [48]                      
54     eltwise_54                                 |                  0.0%   |                  0.0%   [46]                      
55     encoder_layer_layer_normaliz..on_16_beta   |                  0.0%   |                  0.0%   [47]                      
56     eltwise_56                                 |                  0.0%   |                  0.0%   [49]                      
65     tiny_bert_generator_encoder_..dot_MatMul   |                  0.2%   ||||||||||||||||   6.1%   [50]                      
67     dense_53_bias                              |                  0.0%   |                  0.0%   [51]                      
76     tiny_bert_generator_encoder_..dot_MatMul   |                  0.2%   |||||||||||||||    6.1%   [52]                      
78     dense_54_bias                              |                  0.0%   |                  0.0%   [53]                      
79     eltwise_79                                 |                  0.0%   |                  0.0%   [54, 55]                  
80     reduce_80                                  |                  0.0%   |                  0.0%   [56, 57, 58, 59]          
81     eltwise_81                                 |                  0.0%   |                  0.0%   [60]                      
82     reduce_82                                  |                  0.0%   |                  0.0%   [61, 62, 63]              
83     eltwise_83                                 |                  0.0%   |                  0.0%   [64]                      
84     nl_84                                      |                  0.0%   |                  0.0%   [65]                      
85     encoder_layer_layer_normaliz..n_17_gamma   |                  0.0%   |                  0.0%   [66]                      
86     eltwise_86                                 |                  0.0%   |                  0.0%   [69]                      
87     eltwise_87                                 |                  0.0%   |                  0.0%   [67]                      
88     encoder_layer_layer_normaliz..on_17_beta   |                  0.0%   |                  0.0%   [68]                      
89     eltwise_89                                 |                  0.0%   |                  0.0%   [70]                      
101    tiny_bert_generator_encoder_..dot_MatMul   |                  0.1%   ||||||||           3.1%   [79]                      
103    encoder_layer_1_multi_head_a..se_55_bias   |                  0.0%   |                  0.0%   [80]                      
105    transpose_105                              |                  0.0%   |                  0.0%   [81, 82]                  
106    tiny_bert_generator_encoder_..dot_MatMul   |                  0.1%   ||||||||           3.1%   [75]                      
108    encoder_layer_1_multi_head_a..se_56_bias   |                  0.0%   |                  0.0%   [76]                      
111    gemm_111                                   ||||||||||||||||  12.2%   |                  0.0%   [5, 77, 78, 83, 84]       
112    eltwise_112                                |                  0.0%   |                  0.0%   [85]                      
113    nl_113                                     |                  0.0%   |                  0.0%   [86, 87]                  
114    tiny_bert_generator_encoder_..dot_MatMul   |                  0.1%   ||||||||           3.1%   [71]                      
116    encoder_layer_1_multi_head_a..se_57_bias   |                  0.0%   |                  0.0%   [72]                      
118    transpose_118                              |                  0.0%   |                  0.0%   [73, 74]                  
119    gemm_119                                   |||||||||||||||   12.2%   |                  0.0%   [4, 88, 89]               
120    transpose_120                              |                  0.0%   |                  0.0%   [90]                      
130    tiny_bert_generator_encoder_..dot_MatMul   |                  0.1%   ||||||||           3.1%   [91]                      
132    encoder_layer_1_multi_head_a..se_58_bias   |                  0.0%   |                  0.0%   [92]                      
133    eltwise_133                                |                  0.0%   |                  0.0%   [93, 94]                  
134    reduce_134                                 |                  0.0%   |                  0.0%   [95, 96, 97, 98]          
135    eltwise_135                                |                  0.0%   |                  0.0%   [99]                      
136    reduce_136                                 |                  0.0%   |                  0.0%   [100, 101, 102]           
137    eltwise_137                                |                  0.0%   |                  0.0%   [103]                     
138    nl_138                                     |                  0.0%   |                  0.0%   [104]                     
139    encoder_layer_1_layer_normal..n_18_gamma   |                  0.0%   |                  0.0%   [105]                     
140    eltwise_140                                |                  0.0%   |                  0.0%   [108]                     
141    eltwise_141                                |                  0.0%   |                  0.0%   [106]                     
142    encoder_layer_1_layer_normal..on_18_beta   |                  0.0%   |                  0.0%   [107]                     
143    eltwise_143                                |                  0.0%   |                  0.0%   [109]                     
152    tiny_bert_generator_encoder_..dot_MatMul   |                  0.2%   ||||||||||||||||   6.1%   [110]                     
154    dense_59_bias                              |                  0.0%   |                  0.0%   [111]                     
163    tiny_bert_generator_encoder_..dot_MatMul   |                  0.2%   |||||||||||||||    6.1%   [112]                     
165    dense_60_bias                              |                  0.0%   |                  0.0%   [113]                     
166    eltwise_166                                |                  0.0%   |                  0.0%   [114, 115]                
167    reduce_167                                 |                  0.0%   |                  0.0%   [116, 117, 118, 119]      
168    eltwise_168                                |                  0.0%   |                  0.0%   [120]                     
169    reduce_169                                 |                  0.0%   |                  0.0%   [121, 122, 123]           
170    eltwise_170                                |                  0.0%   |                  0.0%   [124]                     
171    nl_171                                     |                  0.0%   |                  0.0%   [125]                     
172    encoder_layer_1_layer_normal..n_19_gamma   |                  0.0%   |                  0.0%   [126]                     
173    eltwise_173                                |                  0.0%   |                  0.0%   [129]                     
174    eltwise_174                                |                  0.0%   |                  0.0%   [127]                     
175    encoder_layer_1_layer_normal..on_19_beta   |                  0.0%   |                  0.0%   [128]                     
176    eltwise_176                                |                  0.0%   |                  0.0%   [130]                     
188    tiny_bert_generator_encoder_..dot_MatMul   |                  0.1%   ||||||||           3.1%   [139]                     
190    encoder_layer_2_multi_head_a..se_61_bias   |                  0.0%   |                  0.0%   [140]                     
192    transpose_192                              |                  0.0%   |                  0.0%   [141, 142]                
193    tiny_bert_generator_encoder_..dot_MatMul   |                  0.1%   ||||||||           3.1%   [135]                     
195    encoder_layer_2_multi_head_a..se_62_bias   |                  0.0%   |                  0.0%   [136]                     
198    gemm_198                                   ||||||||||||||||  12.2%   |                  0.0%   [3, 137, 138, 143, 144]   
199    eltwise_199                                |                  0.0%   |                  0.0%   [145]                     
200    nl_200                                     |                  0.0%   |                  0.0%   [146, 147]                
201    tiny_bert_generator_encoder_..dot_MatMul   |                  0.1%   ||||||||           3.1%   [131]                     
203    encoder_layer_2_multi_head_a..se_63_bias   |                  0.0%   |                  0.0%   [132]                     
205    transpose_205                              |                  0.0%   |                  0.0%   [133, 134]                
206    gemm_206                                   |||||||||||||||   12.2%   |                  0.0%   [2, 148, 149]             
207    transpose_207                              |                  0.0%   |                  0.0%   [150]                     
217    tiny_bert_generator_encoder_..dot_MatMul   |                  0.1%   ||||||||           3.1%   [151]                     
219    encoder_layer_2_multi_head_a..se_64_bias   |                  0.0%   |                  0.0%   [152]                     
220    eltwise_220                                |                  0.0%   |                  0.0%   [153, 154]                
221    reduce_221                                 |                  0.0%   |                  0.0%   [155, 156, 157, 158]      
222    eltwise_222                                |                  0.0%   |                  0.0%   [159]                     
223    reduce_223                                 |                  0.0%   |                  0.0%   [160, 161, 162]           
224    eltwise_224                                |                  0.0%   |                  0.0%   [163]                     
225    nl_225                                     |                  0.0%   |                  0.0%   [164]                     
226    encoder_layer_2_layer_normal..n_20_gamma   |                  0.0%   |                  0.0%   [165]                     
227    eltwise_227                                |                  0.0%   |                  0.0%   [168]                     
228    eltwise_228                                |                  0.0%   |                  0.0%   [166]                     
229    encoder_layer_2_layer_normal..on_20_beta   |                  0.0%   |                  0.0%   [167]                     
230    eltwise_230                                |                  0.0%   |                  0.0%   [169]                     
239    tiny_bert_generator_encoder_..dot_MatMul   |                  0.2%   ||||||||||||||||   6.1%   [170]                     
241    dense_65_bias                              |                  0.0%   |                  0.0%   [171]                     
250    tiny_bert_generator_encoder_..dot_MatMul   |                  0.2%   |||||||||||||||    6.1%   [172]                     
252    dense_66_bias                              |                  0.0%   |                  0.0%   [173]                     
253    eltwise_253                                |                  0.0%   |                  0.0%   [174, 175]                
254    reduce_254                                 |                  0.0%   |                  0.0%   [176, 177, 178, 179]      
255    eltwise_255                                |                  0.0%   |                  0.0%   [180]                     
256    reduce_256                                 |                  0.0%   |                  0.0%   [181, 182, 183]           
257    eltwise_257                                |                  0.0%   |                  0.0%   [184]                     
258    nl_258                                     |                  0.0%   |                  0.0%   [185]                     
259    encoder_layer_2_layer_normal..n_21_gamma   |                  0.0%   |                  0.0%   [186]                     
260    eltwise_260                                |                  0.0%   |                  0.0%   [189]                     
261    eltwise_261                                |                  0.0%   |                  0.0%   [187]                     
262    encoder_layer_2_layer_normal..on_21_beta   |                  0.0%   |                  0.0%   [188]                     
263    eltwise_263                                |                  0.0%   |                  0.0%   [190]                     
275    tiny_bert_generator_encoder_..dot_MatMul   |                  0.1%   ||||||||           3.1%   [199]                     
277    encoder_layer_3_multi_head_a..se_67_bias   |                  0.0%   |                  0.0%   [200]                     
279    transpose_279                              |                  0.0%   |                  0.0%   [201, 202]                
280    tiny_bert_generator_encoder_..dot_MatMul   |                  0.1%   ||||||||           3.1%   [195]                     
282    encoder_layer_3_multi_head_a..se_68_bias   |                  0.0%   |                  0.0%   [196]                     
285    gemm_285                                   ||||||||||||||||  12.2%   |                  0.0%   [1, 197, 198, 203, 204]   
286    eltwise_286                                |                  0.0%   |                  0.0%   [205]                     
287    nl_287                                     |                  0.0%   |                  0.0%   [206, 207]                
288    tiny_bert_generator_encoder_..dot_MatMul   |                  0.1%   ||||||||           3.1%   [191]                     
290    encoder_layer_3_multi_head_a..se_69_bias   |                  0.0%   |                  0.0%   [192]                     
292    transpose_292                              |                  0.0%   |                  0.0%   [193, 194]                
293    gemm_293                                   |||||||||||||||   12.2%   |                  0.0%   [0, 208, 209]             
294    transpose_294                              |                  0.0%   |                  0.0%   [210]                     
304    tiny_bert_generator_encoder_..dot_MatMul   |                  0.1%   ||||||||           3.1%   [211]                     
306    encoder_layer_3_multi_head_a..se_70_bias   |                  0.0%   |                  0.0%   [212]                     
307    eltwise_307                                |                  0.0%   |                  0.0%   [213, 214]                
308    reduce_308                                 |                  0.0%   |                  0.0%   [215, 216, 217, 218]      
309    eltwise_309                                |                  0.0%   |                  0.0%   [219]                     
310    reduce_310                                 |                  0.0%   |                  0.0%   [220, 221, 222]           
311    eltwise_311                                |                  0.0%   |                  0.0%   [223]                     
312    nl_312                                     |                  0.0%   |                  0.0%   [224]                     
313    encoder_layer_3_layer_normal..n_22_gamma   |                  0.0%   |                  0.0%   [225]                     
314    eltwise_314                                |                  0.0%   |                  0.0%   [228]                     
315    eltwise_315                                |                  0.0%   |                  0.0%   [226]                     
316    encoder_layer_3_layer_normal..on_22_beta   |                  0.0%   |                  0.0%   [227]                     
317    eltwise_317                                |                  0.0%   |                  0.0%   [229]                     
326    tiny_bert_generator_encoder_..dot_MatMul   |                  0.2%   ||||||||||||||||   6.1%   [230]                     
328    dense_71_bias                              |                  0.0%   |                  0.0%   [231]                     
337    tiny_bert_generator_encoder_..dot_MatMul   |                  0.2%   |||||||||||||||    6.1%   [232]                     
339    dense_72_bias                              |                  0.0%   |                  0.0%   [233]                     
340    eltwise_340                                |                  0.0%   |                  0.0%   [234, 235]                
341    reduce_341                                 |                  0.0%   |                  0.0%   [236, 237, 238, 239]      
342    eltwise_342                                |                  0.0%   |                  0.0%   [240]                     
343    reduce_343                                 |                  0.0%   |                  0.0%   [241, 242, 243]           
344    eltwise_344                                |                  0.0%   |                  0.0%   [244]                     
345    nl_345                                     |                  0.0%   |                  0.0%   [245]                     
346    encoder_layer_3_layer_normal..n_23_gamma   |                  0.0%   |                  0.0%   [246]                     
347    eltwise_347                                |                  0.0%   |                  0.0%   [249]                     
348    eltwise_348                                |                  0.0%   |                  0.0%   [247]                     
349    encoder_layer_3_layer_normal..on_23_beta   |                  0.0%   |                  0.0%   [248]                     
350    eltwise_350                                |                  0.0%   |                  0.0%   [250]                     
359    tiny_bert_generator_dense_24..dot_MatMul   |                  0.0%   ||                 0.8%   [251]                     
361    dense_24_bias                              |                  0.0%   |                  0.0%   [252]                     
------ ------------------------------------------ ------------------------- ------------------------- ------------------------- 
macc=8,411,143,898 weights=2,171,264 act=550,828 ram_io=0

Generated files (7)
----------------------------------------------------------------------------------------------------------------------- 
C:\Users\drugm\stm32ai-modelzoo-services\text_generation\deployment\c_project\Middlewares\ST\AI\network_data_params.h   
C:\Users\drugm\stm32ai-modelzoo-services\text_generation\deployment\c_project\Middlewares\ST\AI\network_data_params.c   
C:\Users\drugm\stm32ai-modelzoo-services\text_generation\deployment\c_project\Middlewares\ST\AI\network_data.h          
C:\Users\drugm\stm32ai-modelzoo-services\text_generation\deployment\c_project\Middlewares\ST\AI\network_data.c          
C:\Users\drugm\stm32ai-modelzoo-services\text_generation\deployment\c_project\Middlewares\ST\AI\network_config.h        
C:\Users\drugm\stm32ai-modelzoo-services\text_generation\deployment\c_project\Middlewares\ST\AI\network.h               
C:\Users\drugm\stm32ai-modelzoo-services\text_generation\deployment\c_project\Middlewares\ST\AI\network.c               
