ST Edge AI Core v2.1.0-20194 329b0e98d
Created date          : 2025-06-26 14:13:19
Parameters            : generate --model C:\Users\drugm\stm32ai-modelzoo-services\text_generation\src\experiments_outputs\2025_06_25_19_40_59\quantized_models\quantized_model.tflite --target stm32 --output deployment\c_project\Middlewares\ST\AI

Exec/report summary (generate)
----------------------------------------------------------------------------------------------------------------------------------------------------------------------
model file         :   C:\Users\drugm\stm32ai-modelzoo-services\text_generation\src\experiments_outputs\2025_06_25_19_40_59\quantized_models\quantized_model.tflite   
type               :   tflite                                                                                                                                         
c_name             :   network                                                                                                                                        
compression        :   lossless                                                                                                                                       
options            :   allocate-inputs, allocate-outputs                                                                                                              
optimization       :   balanced                                                                                                                                       
target/series      :   stm32                                                                                                                                          
workspace dir      :   C:\Users\drugm\stm32ai-modelzoo-services\text_generation\st_ai_ws                                                                              
output dir         :   C:\Users\drugm\stm32ai-modelzoo-services\text_generation\deployment\c_project\Middlewares\ST\AI                                                
model_fmt          :   sa/sa per tensor                                                                                                                               
model_name         :   quantized_model                                                                                                                                
model_hash         :   0xc19f437a9ce64d694a0e9ef7a74b2a2c                                                                                                             
params #           :   2,150,981 items (2.05 MiB)                                                                                                                     
----------------------------------------------------------------------------------------------------------------------------------------------------------------------
input 1/1          :   'serving_default_em..ed_tokens0', int8(1x100x256), 25.00 KBytes, QLinear(0.001606653,3,int8), activations                                      
output 1/1         :   'eltwise_360', int8(1x100x66), 6.45 KBytes, QLinear(0.049303342,74,int8), activations                                                          
macc               :   8,411,143,898                                                                                                                                  
weights (ro)       :   2,154,368 B (2.05 MiB) (1 segment) / -6,449,556(-75.0%) vs float model                                                                         
activations (rw)   :   545,056 B (532.28 KiB) (1 segment) *                                                                                                           
ram (total)        :   545,056 B (532.28 KiB) = 545,056 + 0 + 0                                                                                                       
----------------------------------------------------------------------------------------------------------------------------------------------------------------------
(*) 'input'/'output' buffers can be used from the activations buffer

Model name - quantized_model
------ ------------------------------------------------ ----------------------- ----------------- --------------- -------------------------------- --- --------------- ---------------------- ----------------------------------------------------------------------------- 
m_id   layer (type,original)                            oshape                  param/size                   macc                     connected to   | c_size          c_macc                 c_type                                                                        
------ ------------------------------------------------ ----------------------- ----------------- --------------- -------------------------------- --- --------------- ---------------------- ----------------------------------------------------------------------------- 
0      serving_default_em..ed_tokens0 (Input, )         [b:1,h:100,c:256]                                                                            | +1(+100.0%)     +25,600(+100.0%)       Eltwise/mul_[8]                                                               
       tiny_bert_generato..ly_1_Mul_y (Placeholder, )   []                      1/1                                                                  | -1(-100.0%)                            
       eltwise_0 (Eltwise, MUL)                         [b:1,h:100,c:256]                                  25,600   serving_default_em..ed_tokens0   |                 -25,600(-100.0%)       
                                                                                                                    tiny_bert_generato..ly_1_Mul_y   | 
------ ------------------------------------------------ ----------------------- ----------------- --------------- -------------------------------- --- --------------- ---------------------- ----------------------------------------------------------------------------- 
1      tiny_bert_generato..___add_1_y (Placeholder, )   [b:1,h:100,c:256]       25,600/25,600                                                        |                 +25,600(+100.0%)       Eltwise/add_[9]                                                               
       eltwise_1 (Eltwise, ADD)                         [b:1,h:100,c:256]                                  25,600                        eltwise_0   |                 -25,600(-100.0%)       
                                                                                                                    tiny_bert_generato..___add_1_y   | 
------ ------------------------------------------------ ----------------------- ----------------- --------------- -------------------------------- --- --------------- ---------------------- ----------------------------------------------------------------------------- 
12     reshape_12 (Reshape, RESHAPE)                    [b:100,c:256]                                                                    eltwise_1   |                                        
------ ------------------------------------------------ ----------------------- ----------------- --------------- -------------------------------- --- --------------- ---------------------- ----------------------------------------------------------------------------- 
13     tiny_bert_generato..ot_MatMul1 (Placeholder, )   [b:256,c:256]           65,536/65,536                                                        | +1,024(+1.6%)   +6,553,856(+100.0%)    Conv2D_[18]                                                                   
       gemm_13 (Gemm, FULLY_CONNECTED)                  [b:100,c:256]                                      65,792                       reshape_12   |                 -65,792(-100.0%)       
                                                                                                                    tiny_bert_generato..ot_MatMul1   | 
------ ------------------------------------------------ ----------------------- ----------------- --------------- -------------------------------- --- --------------- ---------------------- ----------------------------------------------------------------------------- 
14     reshape_14 (Reshape, RESHAPE)                    [b:1,h:100,c:256]                                                                  gemm_13   |                                        
------ ------------------------------------------------ ----------------------- ----------------- --------------- -------------------------------- --- --------------- ---------------------- ----------------------------------------------------------------------------- 
15     tiny_bert_generato..VariableOp (Placeholder, )   [b:256]                 256/256                                                              |                 +25,600(+100.0%)       Eltwise/add_[19]                                                              
       eltwise_15 (Eltwise, ADD)                        [b:1,h:100,c:256]                                  25,600                       reshape_14   |                 -25,600(-100.0%)       
                                                                                                                    tiny_bert_generato..VariableOp   | 
------ ------------------------------------------------ ----------------------- ----------------- --------------- -------------------------------- --- --------------- ---------------------- ----------------------------------------------------------------------------- 
16     reshape_16 (Reshape, RESHAPE)                    [b:1,h:100,w:4,c:64]                                                            eltwise_15   |                                        
------ ------------------------------------------------ ----------------------- ----------------- --------------- -------------------------------- --- --------------- ---------------------- ----------------------------------------------------------------------------- 
17     transpose_17 (Transpose, TRANSPOSE)              [b:1,h:4,w:100,c:64]                               12,800                       reshape_16   |                 -12,800(-100.0%)       
------ ------------------------------------------------ ----------------------- ----------------- --------------- -------------------------------- --- --------------- ---------------------- ----------------------------------------------------------------------------- 
18     tiny_bert_generato..dot_MatMul (Placeholder, )   [b:256,c:256]           65,536/65,536                                                        | +1,024(+1.6%)   +6,553,856(+100.0%)    Conv2D_[14]                                                                   
       gemm_18 (Gemm, FULLY_CONNECTED)                  [b:100,c:256]                                      65,792                       reshape_12   |                 -65,792(-100.0%)       
                                                                                                                    tiny_bert_generato..dot_MatMul   | 
------ ------------------------------------------------ ----------------------- ----------------- --------------- -------------------------------- --- --------------- ---------------------- ----------------------------------------------------------------------------- 
19     reshape_19 (Reshape, RESHAPE)                    [b:1,h:100,c:256]                                                                  gemm_18   |                                        
------ ------------------------------------------------ ----------------------- ----------------- --------------- -------------------------------- --- --------------- ---------------------- ----------------------------------------------------------------------------- 
20     tiny_bert_generato..VariableOp (Placeholder, )   [b:256]                 256/256                                                              |                 +25,600(+100.0%)       Eltwise/add_[15]                                                              
       eltwise_20 (Eltwise, ADD)                        [b:1,h:100,c:256]                                  25,600                       reshape_19   |                 -25,600(-100.0%)       
                                                                                                                    tiny_bert_generato..VariableOp   | 
------ ------------------------------------------------ ----------------------- ----------------- --------------- -------------------------------- --- --------------- ---------------------- ----------------------------------------------------------------------------- 
21     reshape_21 (Reshape, RESHAPE)                    [b:1,h:100,w:4,c:64]                                                            eltwise_20   |                                        
------ ------------------------------------------------ ----------------------- ----------------- --------------- -------------------------------- --- --------------- ---------------------- ----------------------------------------------------------------------------- 
22     transpose_22 (Transpose, TRANSPOSE)              [b:1,h:4,w:100,c:64]                               12,800                       reshape_21   |                 +51,200(+400.0%)       Transpose_/Conversion_[16, 17]                                                
------ ------------------------------------------------ ----------------------- ----------------- --------------- -------------------------------- --- --------------- ---------------------- ----------------------------------------------------------------------------- 
23     gemm_23 (Gemm, BATCH_MATMUL)                     [b:1,h:4,w:100,c:100]                       1,024,040,000                     transpose_22   | +1(+100.0%)     +144,002(+0.0%)        Conversion_/Transpose_/Conversion_/Gemm_/Conversion_[7, 20, 21, 22, 23]       
                                                                                                                                      transpose_17   | 
------ ------------------------------------------------ ----------------------- ----------------- --------------- -------------------------------- --- --------------- ---------------------- ----------------------------------------------------------------------------- 
24     tiny_bert_generato..3_mha_Sqrt (Placeholder, )   []                      1/1                                                                  |                 +40,000(+100.0%)       Eltwise/mul_[24]                                                              
       eltwise_24 (Eltwise, MUL)                        [b:1,h:4,w:100,c:100]                              40,000                          gemm_23   |                 -40,000(-100.0%)       
                                                                                                                    tiny_bert_generato..3_mha_Sqrt   | 
------ ------------------------------------------------ ----------------------- ----------------- --------------- -------------------------------- --- --------------- ---------------------- ----------------------------------------------------------------------------- 
25     nl_25 (Nonlinearity, SOFTMAX)                    [b:1,h:4,w:100,c:100]                             600,000                       eltwise_24   |                 +80,000(+13.3%)        Nonlinearity_/Conversion_[25, 26]                                             
------ ------------------------------------------------ ----------------------- ----------------- --------------- -------------------------------- --- --------------- ---------------------- ----------------------------------------------------------------------------- 
26     tiny_bert_generato..dot_MatMul (Placeholder, )   [b:256,c:256]           65,536/65,536                                                        | +1,024(+1.6%)   +6,553,856(+100.0%)    Conv2D_[10]                                                                   
       gemm_26 (Gemm, FULLY_CONNECTED)                  [b:100,c:256]                                      65,792                       reshape_12   |                 -65,792(-100.0%)       
                                                                                                                    tiny_bert_generato..dot_MatMul   | 
------ ------------------------------------------------ ----------------------- ----------------- --------------- -------------------------------- --- --------------- ---------------------- ----------------------------------------------------------------------------- 
27     reshape_27 (Reshape, RESHAPE)                    [b:1,h:100,c:256]                                                                  gemm_26   |                                        
------ ------------------------------------------------ ----------------------- ----------------- --------------- -------------------------------- --- --------------- ---------------------- ----------------------------------------------------------------------------- 
28     tiny_bert_generato..VariableOp (Placeholder, )   [b:256]                 256/256                                                              |                 +25,600(+100.0%)       Eltwise/add_[11]                                                              
       eltwise_28 (Eltwise, ADD)                        [b:1,h:100,c:256]                                  25,600                       reshape_27   |                 -25,600(-100.0%)       
                                                                                                                    tiny_bert_generato..VariableOp   | 
------ ------------------------------------------------ ----------------------- ----------------- --------------- -------------------------------- --- --------------- ---------------------- ----------------------------------------------------------------------------- 
29     reshape_29 (Reshape, RESHAPE)                    [b:1,h:100,w:4,c:64]                                                            eltwise_28   |                                        
------ ------------------------------------------------ ----------------------- ----------------- --------------- -------------------------------- --- --------------- ---------------------- ----------------------------------------------------------------------------- 
30     transpose_30 (Transpose, TRANSPOSE)              [b:1,h:4,w:100,c:64]                               12,800                       reshape_29   |                 +51,200(+400.0%)       Transpose_/Conversion_[12, 13]                                                
------ ------------------------------------------------ ----------------------- ----------------- --------------- -------------------------------- --- --------------- ---------------------- ----------------------------------------------------------------------------- 
31     gemm_31 (Gemm, BATCH_MATMUL)                     [b:1,h:4,w:100,c:64]                        1,024,025,600                            nl_25   | +1(+100.0%)     +51,202(+0.0%)         Conversion_/Gemm_/Conversion_[6, 27, 28]                                      
                                                                                                                                      transpose_30   | 
------ ------------------------------------------------ ----------------------- ----------------- --------------- -------------------------------- --- --------------- ---------------------- ----------------------------------------------------------------------------- 
32     transpose_32 (Transpose, TRANSPOSE)              [b:1,h:100,w:4,c:64]                               12,800                          gemm_31   |                                        Transpose_[29]                                                                
------ ------------------------------------------------ ----------------------- ----------------- --------------- -------------------------------- --- --------------- ---------------------- ----------------------------------------------------------------------------- 
33     reshape_33 (Reshape, RESHAPE)                    [b:1,h:100,c:256]                                                             transpose_32   |                                        
------ ------------------------------------------------ ----------------------- ----------------- --------------- -------------------------------- --- --------------- ---------------------- ----------------------------------------------------------------------------- 
41     reshape_41 (Reshape, RESHAPE)                    [b:100,c:256]                                                                 transpose_32   |                                        
------ ------------------------------------------------ ----------------------- ----------------- --------------- -------------------------------- --- --------------- ---------------------- ----------------------------------------------------------------------------- 
42     tiny_bert_generato..dot_MatMul (Placeholder, )   [b:256,c:256]           65,536/65,536                                                        | +1,024(+1.6%)   +6,553,856(+100.0%)    Conv2D_[30]                                                                   
       gemm_42 (Gemm, FULLY_CONNECTED)                  [b:100,c:256]                                      65,792                       reshape_41   |                 -65,792(-100.0%)       
                                                                                                                    tiny_bert_generato..dot_MatMul   | 
------ ------------------------------------------------ ----------------------- ----------------- --------------- -------------------------------- --- --------------- ---------------------- ----------------------------------------------------------------------------- 
43     reshape_43 (Reshape, RESHAPE)                    [b:1,h:100,c:256]                                                                  gemm_42   |                                        
------ ------------------------------------------------ ----------------------- ----------------- --------------- -------------------------------- --- --------------- ---------------------- ----------------------------------------------------------------------------- 
44     tiny_bert_generato..VariableOp (Placeholder, )   [b:256]                 256/256                                                              |                 +25,600(+100.0%)       Eltwise/add_[31]                                                              
       eltwise_44 (Eltwise, ADD)                        [b:1,h:100,c:256]                                  25,600                       reshape_43   |                 -25,600(-100.0%)       
                                                                                                                    tiny_bert_generato..VariableOp   | 
------ ------------------------------------------------ ----------------------- ----------------- --------------- -------------------------------- --- --------------- ---------------------- ----------------------------------------------------------------------------- 
45     eltwise_45 (Eltwise, ADD)                        [b:1,h:100,c:256]                                  25,600                        eltwise_1   |                 +51,200(+200.0%)       Eltwise/add_/Conversion_[32, 33]                                              
                                                                                                                                        eltwise_44   | 
------ ------------------------------------------------ ----------------------- ----------------- --------------- -------------------------------- --- --------------- ---------------------- ----------------------------------------------------------------------------- 
46     reduce_46 (Reduce, MEAN)                         [b:1,h:100,c:1]                                    51,200                       eltwise_45   | +8(+100.0%)     -25,000(-48.8%)        Reduce_/ScaleBias_/Conversion_/Conversion_[34, 35, 36, 37]                    
------ ------------------------------------------------ ----------------------- ----------------- --------------- -------------------------------- --- --------------- ---------------------- ----------------------------------------------------------------------------- 
47     eltwise_47 (Eltwise, SQUARED_DIFFERENCE)         [b:1,h:100,c:256]                                 128,000                       eltwise_45   |                                        Eltwise/squared_diff_[38]                                                     
                                                                                                                                         reduce_46   | 
------ ------------------------------------------------ ----------------------- ----------------- --------------- -------------------------------- --- --------------- ---------------------- ----------------------------------------------------------------------------- 
48     reduce_48 (Reduce, MEAN)                         [b:1,h:100,c:1]                                    51,200                       eltwise_47   | +8(+100.0%)     -25,200(-49.2%)        Reduce_/ScaleBias_/Conversion_[39, 40, 41]                                    
------ ------------------------------------------------ ----------------------- ----------------- --------------- -------------------------------- --- --------------- ---------------------- ----------------------------------------------------------------------------- 
49     tiny_bert_generato..norm_add_y (Placeholder, )   []                      1/1                                                                  |                 +100(+100.0%)          Eltwise/add_[42]                                                              
       eltwise_49 (Eltwise, ADD)                        [b:1,h:100,c:1]                                       100                        reduce_48   |                 -100(-100.0%)          
                                                                                                                    tiny_bert_generato..norm_add_y   | 
------ ------------------------------------------------ ----------------------- ----------------- --------------- -------------------------------- --- --------------- ---------------------- ----------------------------------------------------------------------------- 
50     nl_50 (Nonlinearity, RSQRT)                      [b:1,h:100,c:1]                                     1,200                       eltwise_49   |                 -1,100(-91.7%)         Nonlinearity_[43]                                                             
------ ------------------------------------------------ ----------------------- ----------------- --------------- -------------------------------- --- --------------- ---------------------- ----------------------------------------------------------------------------- 
51     tiny_bert_generato..VariableOp (Placeholder, )   [b:256]                 256/256                                                              |                 +100(+100.0%)          Eltwise/mul_[44]                                                              
       eltwise_51 (Eltwise, MUL)                        [b:1,h:100,c:256]                                     100                            nl_50   |                 -100(-100.0%)          
                                                                                                                    tiny_bert_generato..VariableOp   | 
------ ------------------------------------------------ ----------------------- ----------------- --------------- -------------------------------- --- --------------- ---------------------- ----------------------------------------------------------------------------- 
52     eltwise_52 (Eltwise, MUL)                        [b:1,h:100,c:256]                                  25,600                       eltwise_45   |                                        Eltwise/mul_[47]                                                              
                                                                                                                                        eltwise_51   | 
------ ------------------------------------------------ ----------------------- ----------------- --------------- -------------------------------- --- --------------- ---------------------- ----------------------------------------------------------------------------- 
53     eltwise_53 (Eltwise, MUL)                        [b:1,h:100,c:256]                                     100                        reduce_46   |                                        Eltwise/mul_[45]                                                              
                                                                                                                                        eltwise_51   | 
------ ------------------------------------------------ ----------------------- ----------------- --------------- -------------------------------- --- --------------- ---------------------- ----------------------------------------------------------------------------- 
54     tiny_bert_generato..VariableOp (Placeholder, )   [b:256]                 256/256                                                              |                 +256(+100.0%)          Eltwise/sub_[46]                                                              
       eltwise_54 (Eltwise, SUB)                        [b:1,h:100,c:256]                                     256   tiny_bert_generato..VariableOp   |                 -256(-100.0%)          
                                                                                                                                        eltwise_53   | 
------ ------------------------------------------------ ----------------------- ----------------- --------------- -------------------------------- --- --------------- ---------------------- ----------------------------------------------------------------------------- 
55     eltwise_55 (Eltwise, ADD)                        [b:1,h:100,c:256]                                  25,600                       eltwise_52   |                                        Eltwise/add_[48]                                                              
                                                                                                                                        eltwise_54   | 
------ ------------------------------------------------ ----------------------- ----------------- --------------- -------------------------------- --- --------------- ---------------------- ----------------------------------------------------------------------------- 
63     reshape_63 (Reshape, RESHAPE)                    [b:100,c:256]                                                                   eltwise_55   |                                        
------ ------------------------------------------------ ----------------------- ----------------- --------------- -------------------------------- --- --------------- ---------------------- ----------------------------------------------------------------------------- 
64     tiny_bert_generato..dot_MatMul (Placeholder, )   [b:512,c:256]           131,072/131,072                                                      | +2,048(+1.6%)   +13,107,712(+100.0%)   Conv2D_[49]                                                                   
       gemm_64 (Gemm, FULLY_CONNECTED)                  [b:100,c:512]                                     131,584                       reshape_63   |                 -131,584(-100.0%)      
                                                                                                                    tiny_bert_generato..dot_MatMul   | 
------ ------------------------------------------------ ----------------------- ----------------- --------------- -------------------------------- --- --------------- ---------------------- ----------------------------------------------------------------------------- 
65     reshape_65 (Reshape, RESHAPE)                    [b:1,h:100,c:512]                                                                  gemm_64   |                                        
------ ------------------------------------------------ ----------------------- ----------------- --------------- -------------------------------- --- --------------- ---------------------- ----------------------------------------------------------------------------- 
66     tiny_bert_generato..VariableOp (Placeholder, )   [b:512]                 512/512                                                              |                 +51,200(+100.0%)       Eltwise/add_[50]                                                              
       eltwise_66 (Eltwise, ADD)                        [b:1,h:100,c:512]                                  51,200                       reshape_65   |                 -51,200(-100.0%)       
                                                                                                                    tiny_bert_generato..VariableOp   | 
       nl_66_nl (Nonlinearity, ADD)                     [b:1,h:100,c:512]                                  51,200                       eltwise_66   |                 -51,200(-100.0%)       
------ ------------------------------------------------ ----------------------- ----------------- --------------- -------------------------------- --- --------------- ---------------------- ----------------------------------------------------------------------------- 
74     reshape_74 (Reshape, RESHAPE)                    [b:100,c:512]                                                                     nl_66_nl   |                                        
------ ------------------------------------------------ ----------------------- ----------------- --------------- -------------------------------- --- --------------- ---------------------- ----------------------------------------------------------------------------- 
75     tiny_bert_generato..dot_MatMul (Placeholder, )   [b:256,c:512]           131,072/131,072                                                      | +1,024(+0.8%)   +13,107,456(+100.0%)   Conv2D_[51]                                                                   
       gemm_75 (Gemm, FULLY_CONNECTED)                  [b:100,c:256]                                     131,328                       reshape_74   |                 -131,328(-100.0%)      
                                                                                                                    tiny_bert_generato..dot_MatMul   | 
------ ------------------------------------------------ ----------------------- ----------------- --------------- -------------------------------- --- --------------- ---------------------- ----------------------------------------------------------------------------- 
76     reshape_76 (Reshape, RESHAPE)                    [b:1,h:100,c:256]                                                                  gemm_75   |                                        
------ ------------------------------------------------ ----------------------- ----------------- --------------- -------------------------------- --- --------------- ---------------------- ----------------------------------------------------------------------------- 
77     tiny_bert_generato..VariableOp (Placeholder, )   [b:256]                 256/256                                                              |                 +25,600(+100.0%)       Eltwise/add_[52]                                                              
       eltwise_77 (Eltwise, ADD)                        [b:1,h:100,c:256]                                  25,600                       reshape_76   |                 -25,600(-100.0%)       
                                                                                                                    tiny_bert_generato..VariableOp   | 
------ ------------------------------------------------ ----------------------- ----------------- --------------- -------------------------------- --- --------------- ---------------------- ----------------------------------------------------------------------------- 
78     eltwise_78 (Eltwise, ADD)                        [b:1,h:100,c:256]                                  25,600                       eltwise_55   |                 +51,200(+200.0%)       Eltwise/add_/Conversion_[53, 54]                                              
                                                                                                                                        eltwise_77   | 
------ ------------------------------------------------ ----------------------- ----------------- --------------- -------------------------------- --- --------------- ---------------------- ----------------------------------------------------------------------------- 
79     reduce_79 (Reduce, MEAN)                         [b:1,h:100,c:1]                                    51,200                       eltwise_78   | +8(+100.0%)     -25,000(-48.8%)        Reduce_/ScaleBias_/Conversion_/Conversion_[55, 56, 57, 58]                    
------ ------------------------------------------------ ----------------------- ----------------- --------------- -------------------------------- --- --------------- ---------------------- ----------------------------------------------------------------------------- 
80     eltwise_80 (Eltwise, SQUARED_DIFFERENCE)         [b:1,h:100,c:256]                                 128,000                       eltwise_78   |                                        Eltwise/squared_diff_[59]                                                     
                                                                                                                                         reduce_79   | 
------ ------------------------------------------------ ----------------------- ----------------- --------------- -------------------------------- --- --------------- ---------------------- ----------------------------------------------------------------------------- 
81     reduce_81 (Reduce, MEAN)                         [b:1,h:100,c:1]                                    51,200                       eltwise_80   | +8(+100.0%)     -25,200(-49.2%)        Reduce_/ScaleBias_/Conversion_[60, 61, 62]                                    
------ ------------------------------------------------ ----------------------- ----------------- --------------- -------------------------------- --- --------------- ---------------------- ----------------------------------------------------------------------------- 
82     eltwise_82 (Eltwise, ADD)                        [b:1,h:100,c:1]                                       100                        reduce_81   | +1(+100.0%)                            Eltwise/add_[63]                                                              
                                                                                                                    tiny_bert_generato..norm_add_y   | 
------ ------------------------------------------------ ----------------------- ----------------- --------------- -------------------------------- --- --------------- ---------------------- ----------------------------------------------------------------------------- 
83     nl_83 (Nonlinearity, RSQRT)                      [b:1,h:100,c:1]                                     1,200                       eltwise_82   |                 -1,100(-91.7%)         Nonlinearity_[64]                                                             
------ ------------------------------------------------ ----------------------- ----------------- --------------- -------------------------------- --- --------------- ---------------------- ----------------------------------------------------------------------------- 
84     tiny_bert_generato..VariableOp (Placeholder, )   [b:256]                 256/256                                                              |                 +100(+100.0%)          Eltwise/mul_[65]                                                              
       eltwise_84 (Eltwise, MUL)                        [b:1,h:100,c:256]                                     100                            nl_83   |                 -100(-100.0%)          
                                                                                                                    tiny_bert_generato..VariableOp   | 
------ ------------------------------------------------ ----------------------- ----------------- --------------- -------------------------------- --- --------------- ---------------------- ----------------------------------------------------------------------------- 
85     eltwise_85 (Eltwise, MUL)                        [b:1,h:100,c:256]                                  25,600                       eltwise_78   |                                        Eltwise/mul_[68]                                                              
                                                                                                                                        eltwise_84   | 
------ ------------------------------------------------ ----------------------- ----------------- --------------- -------------------------------- --- --------------- ---------------------- ----------------------------------------------------------------------------- 
86     eltwise_86 (Eltwise, MUL)                        [b:1,h:100,c:256]                                     100                        reduce_79   |                                        Eltwise/mul_[66]                                                              
                                                                                                                                        eltwise_84   | 
------ ------------------------------------------------ ----------------------- ----------------- --------------- -------------------------------- --- --------------- ---------------------- ----------------------------------------------------------------------------- 
87     tiny_bert_generato..VariableOp (Placeholder, )   [b:256]                 256/256                                                              |                 +256(+100.0%)          Eltwise/sub_[67]                                                              
       eltwise_87 (Eltwise, SUB)                        [b:1,h:100,c:256]                                     256   tiny_bert_generato..VariableOp   |                 -256(-100.0%)          
                                                                                                                                        eltwise_86   | 
------ ------------------------------------------------ ----------------------- ----------------- --------------- -------------------------------- --- --------------- ---------------------- ----------------------------------------------------------------------------- 
88     eltwise_88 (Eltwise, ADD)                        [b:1,h:100,c:256]                                  25,600                       eltwise_85   |                                        Eltwise/add_[69]                                                              
                                                                                                                                        eltwise_87   | 
------ ------------------------------------------------ ----------------------- ----------------- --------------- -------------------------------- --- --------------- ---------------------- ----------------------------------------------------------------------------- 
99     reshape_99 (Reshape, RESHAPE)                    [b:100,c:256]                                                                   eltwise_88   |                                        
------ ------------------------------------------------ ----------------------- ----------------- --------------- -------------------------------- --- --------------- ---------------------- ----------------------------------------------------------------------------- 
100    tiny_bert_generato..dot_MatMul (Placeholder, )   [b:256,c:256]           65,536/65,536                                                        | +1,024(+1.6%)   +6,553,856(+100.0%)    Conv2D_[78]                                                                   
       gemm_100 (Gemm, FULLY_CONNECTED)                 [b:100,c:256]                                      65,792                       reshape_99   |                 -65,792(-100.0%)       
                                                                                                                    tiny_bert_generato..dot_MatMul   | 
------ ------------------------------------------------ ----------------------- ----------------- --------------- -------------------------------- --- --------------- ---------------------- ----------------------------------------------------------------------------- 
101    reshape_101 (Reshape, RESHAPE)                   [b:1,h:100,c:256]                                                                 gemm_100   |                                        
------ ------------------------------------------------ ----------------------- ----------------- --------------- -------------------------------- --- --------------- ---------------------- ----------------------------------------------------------------------------- 
102    tiny_bert_generato..VariableOp (Placeholder, )   [b:256]                 256/256                                                              |                 +25,600(+100.0%)       Eltwise/add_[79]                                                              
       eltwise_102 (Eltwise, ADD)                       [b:1,h:100,c:256]                                  25,600                      reshape_101   |                 -25,600(-100.0%)       
                                                                                                                    tiny_bert_generato..VariableOp   | 
------ ------------------------------------------------ ----------------------- ----------------- --------------- -------------------------------- --- --------------- ---------------------- ----------------------------------------------------------------------------- 
103    reshape_103 (Reshape, RESHAPE)                   [b:1,h:100,w:4,c:64]                                                           eltwise_102   |                                        
------ ------------------------------------------------ ----------------------- ----------------- --------------- -------------------------------- --- --------------- ---------------------- ----------------------------------------------------------------------------- 
104    transpose_104 (Transpose, TRANSPOSE)             [b:1,h:4,w:100,c:64]                               12,800                      reshape_103   |                 -12,800(-100.0%)       
------ ------------------------------------------------ ----------------------- ----------------- --------------- -------------------------------- --- --------------- ---------------------- ----------------------------------------------------------------------------- 
105    tiny_bert_generato..dot_MatMul (Placeholder, )   [b:256,c:256]           65,536/65,536                                                        | +1,024(+1.6%)   +6,553,856(+100.0%)    Conv2D_[74]                                                                   
       gemm_105 (Gemm, FULLY_CONNECTED)                 [b:100,c:256]                                      65,792                       reshape_99   |                 -65,792(-100.0%)       
                                                                                                                    tiny_bert_generato..dot_MatMul   | 
------ ------------------------------------------------ ----------------------- ----------------- --------------- -------------------------------- --- --------------- ---------------------- ----------------------------------------------------------------------------- 
106    reshape_106 (Reshape, RESHAPE)                   [b:1,h:100,c:256]                                                                 gemm_105   |                                        
------ ------------------------------------------------ ----------------------- ----------------- --------------- -------------------------------- --- --------------- ---------------------- ----------------------------------------------------------------------------- 
107    tiny_bert_generato..VariableOp (Placeholder, )   [b:256]                 256/256                                                              |                 +25,600(+100.0%)       Eltwise/add_[75]                                                              
       eltwise_107 (Eltwise, ADD)                       [b:1,h:100,c:256]                                  25,600                      reshape_106   |                 -25,600(-100.0%)       
                                                                                                                    tiny_bert_generato..VariableOp   | 
------ ------------------------------------------------ ----------------------- ----------------- --------------- -------------------------------- --- --------------- ---------------------- ----------------------------------------------------------------------------- 
108    reshape_108 (Reshape, RESHAPE)                   [b:1,h:100,w:4,c:64]                                                           eltwise_107   |                                        
------ ------------------------------------------------ ----------------------- ----------------- --------------- -------------------------------- --- --------------- ---------------------- ----------------------------------------------------------------------------- 
109    transpose_109 (Transpose, TRANSPOSE)             [b:1,h:4,w:100,c:64]                               12,800                      reshape_108   |                 +51,200(+400.0%)       Transpose_/Conversion_[76, 77]                                                
------ ------------------------------------------------ ----------------------- ----------------- --------------- -------------------------------- --- --------------- ---------------------- ----------------------------------------------------------------------------- 
110    gemm_110 (Gemm, BATCH_MATMUL)                    [b:1,h:4,w:100,c:100]                       1,024,040,000                    transpose_109   | +1(+100.0%)     +144,002(+0.0%)        Conversion_/Transpose_/Conversion_/Gemm_/Conversion_[5, 80, 81, 82, 83]       
                                                                                                                                     transpose_104   | 
------ ------------------------------------------------ ----------------------- ----------------- --------------- -------------------------------- --- --------------- ---------------------- ----------------------------------------------------------------------------- 
111    eltwise_111 (Eltwise, MUL)                       [b:1,h:4,w:100,c:100]                              40,000                         gemm_110   | +1(+100.0%)                            Eltwise/mul_[84]                                                              
                                                                                                                    tiny_bert_generato..3_mha_Sqrt   | 
------ ------------------------------------------------ ----------------------- ----------------- --------------- -------------------------------- --- --------------- ---------------------- ----------------------------------------------------------------------------- 
112    nl_112 (Nonlinearity, SOFTMAX)                   [b:1,h:4,w:100,c:100]                             600,000                      eltwise_111   |                 +80,000(+13.3%)        Nonlinearity_/Conversion_[85, 86]                                             
------ ------------------------------------------------ ----------------------- ----------------- --------------- -------------------------------- --- --------------- ---------------------- ----------------------------------------------------------------------------- 
113    tiny_bert_generato..dot_MatMul (Placeholder, )   [b:256,c:256]           65,536/65,536                                                        | +1,024(+1.6%)   +6,553,856(+100.0%)    Conv2D_[70]                                                                   
       gemm_113 (Gemm, FULLY_CONNECTED)                 [b:100,c:256]                                      65,792                       reshape_99   |                 -65,792(-100.0%)       
                                                                                                                    tiny_bert_generato..dot_MatMul   | 
------ ------------------------------------------------ ----------------------- ----------------- --------------- -------------------------------- --- --------------- ---------------------- ----------------------------------------------------------------------------- 
114    reshape_114 (Reshape, RESHAPE)                   [b:1,h:100,c:256]                                                                 gemm_113   |                                        
------ ------------------------------------------------ ----------------------- ----------------- --------------- -------------------------------- --- --------------- ---------------------- ----------------------------------------------------------------------------- 
115    tiny_bert_generato..VariableOp (Placeholder, )   [b:256]                 256/256                                                              |                 +25,600(+100.0%)       Eltwise/add_[71]                                                              
       eltwise_115 (Eltwise, ADD)                       [b:1,h:100,c:256]                                  25,600                      reshape_114   |                 -25,600(-100.0%)       
                                                                                                                    tiny_bert_generato..VariableOp   | 
------ ------------------------------------------------ ----------------------- ----------------- --------------- -------------------------------- --- --------------- ---------------------- ----------------------------------------------------------------------------- 
116    reshape_116 (Reshape, RESHAPE)                   [b:1,h:100,w:4,c:64]                                                           eltwise_115   |                                        
------ ------------------------------------------------ ----------------------- ----------------- --------------- -------------------------------- --- --------------- ---------------------- ----------------------------------------------------------------------------- 
117    transpose_117 (Transpose, TRANSPOSE)             [b:1,h:4,w:100,c:64]                               12,800                      reshape_116   |                 +51,200(+400.0%)       Transpose_/Conversion_[72, 73]                                                
------ ------------------------------------------------ ----------------------- ----------------- --------------- -------------------------------- --- --------------- ---------------------- ----------------------------------------------------------------------------- 
118    gemm_118 (Gemm, BATCH_MATMUL)                    [b:1,h:4,w:100,c:64]                        1,024,025,600                           nl_112   | +1(+100.0%)     +51,202(+0.0%)         Conversion_/Gemm_/Conversion_[4, 87, 88]                                      
                                                                                                                                     transpose_117   | 
------ ------------------------------------------------ ----------------------- ----------------- --------------- -------------------------------- --- --------------- ---------------------- ----------------------------------------------------------------------------- 
119    transpose_119 (Transpose, TRANSPOSE)             [b:1,h:100,w:4,c:64]                               12,800                         gemm_118   |                                        Transpose_[89]                                                                
------ ------------------------------------------------ ----------------------- ----------------- --------------- -------------------------------- --- --------------- ---------------------- ----------------------------------------------------------------------------- 
120    reshape_120 (Reshape, RESHAPE)                   [b:1,h:100,c:256]                                                            transpose_119   |                                        
------ ------------------------------------------------ ----------------------- ----------------- --------------- -------------------------------- --- --------------- ---------------------- ----------------------------------------------------------------------------- 
128    reshape_128 (Reshape, RESHAPE)                   [b:100,c:256]                                                                transpose_119   |                                        
------ ------------------------------------------------ ----------------------- ----------------- --------------- -------------------------------- --- --------------- ---------------------- ----------------------------------------------------------------------------- 
129    tiny_bert_generato..dot_MatMul (Placeholder, )   [b:256,c:256]           65,536/65,536                                                        | +1,024(+1.6%)   +6,553,856(+100.0%)    Conv2D_[90]                                                                   
       gemm_129 (Gemm, FULLY_CONNECTED)                 [b:100,c:256]                                      65,792                      reshape_128   |                 -65,792(-100.0%)       
                                                                                                                    tiny_bert_generato..dot_MatMul   | 
------ ------------------------------------------------ ----------------------- ----------------- --------------- -------------------------------- --- --------------- ---------------------- ----------------------------------------------------------------------------- 
130    reshape_130 (Reshape, RESHAPE)                   [b:1,h:100,c:256]                                                                 gemm_129   |                                        
------ ------------------------------------------------ ----------------------- ----------------- --------------- -------------------------------- --- --------------- ---------------------- ----------------------------------------------------------------------------- 
131    tiny_bert_generato..VariableOp (Placeholder, )   [b:256]                 256/256                                                              |                 +25,600(+100.0%)       Eltwise/add_[91]                                                              
       eltwise_131 (Eltwise, ADD)                       [b:1,h:100,c:256]                                  25,600                      reshape_130   |                 -25,600(-100.0%)       
                                                                                                                    tiny_bert_generato..VariableOp   | 
------ ------------------------------------------------ ----------------------- ----------------- --------------- -------------------------------- --- --------------- ---------------------- ----------------------------------------------------------------------------- 
132    eltwise_132 (Eltwise, ADD)                       [b:1,h:100,c:256]                                  25,600                       eltwise_88   |                 +51,200(+200.0%)       Eltwise/add_/Conversion_[92, 93]                                              
                                                                                                                                       eltwise_131   | 
------ ------------------------------------------------ ----------------------- ----------------- --------------- -------------------------------- --- --------------- ---------------------- ----------------------------------------------------------------------------- 
133    reduce_133 (Reduce, MEAN)                        [b:1,h:100,c:1]                                    51,200                      eltwise_132   | +8(+100.0%)     -25,000(-48.8%)        Reduce_/ScaleBias_/Conversion_/Conversion_[94, 95, 96, 97]                    
------ ------------------------------------------------ ----------------------- ----------------- --------------- -------------------------------- --- --------------- ---------------------- ----------------------------------------------------------------------------- 
134    eltwise_134 (Eltwise, SQUARED_DIFFERENCE)        [b:1,h:100,c:256]                                 128,000                      eltwise_132   |                                        Eltwise/squared_diff_[98]                                                     
                                                                                                                                        reduce_133   | 
------ ------------------------------------------------ ----------------------- ----------------- --------------- -------------------------------- --- --------------- ---------------------- ----------------------------------------------------------------------------- 
135    reduce_135 (Reduce, MEAN)                        [b:1,h:100,c:1]                                    51,200                      eltwise_134   | +8(+100.0%)     -25,200(-49.2%)        Reduce_/ScaleBias_/Conversion_[99, 100, 101]                                  
------ ------------------------------------------------ ----------------------- ----------------- --------------- -------------------------------- --- --------------- ---------------------- ----------------------------------------------------------------------------- 
136    eltwise_136 (Eltwise, ADD)                       [b:1,h:100,c:1]                                       100                       reduce_135   | +1(+100.0%)                            Eltwise/add_[102]                                                             
                                                                                                                    tiny_bert_generato..norm_add_y   | 
------ ------------------------------------------------ ----------------------- ----------------- --------------- -------------------------------- --- --------------- ---------------------- ----------------------------------------------------------------------------- 
137    nl_137 (Nonlinearity, RSQRT)                     [b:1,h:100,c:1]                                     1,200                      eltwise_136   |                 -1,100(-91.7%)         Nonlinearity_[103]                                                            
------ ------------------------------------------------ ----------------------- ----------------- --------------- -------------------------------- --- --------------- ---------------------- ----------------------------------------------------------------------------- 
138    tiny_bert_generato..VariableOp (Placeholder, )   [b:256]                 256/256                                                              |                 +100(+100.0%)          Eltwise/mul_[104]                                                             
       eltwise_138 (Eltwise, MUL)                       [b:1,h:100,c:256]                                     100                           nl_137   |                 -100(-100.0%)          
                                                                                                                    tiny_bert_generato..VariableOp   | 
------ ------------------------------------------------ ----------------------- ----------------- --------------- -------------------------------- --- --------------- ---------------------- ----------------------------------------------------------------------------- 
139    eltwise_139 (Eltwise, MUL)                       [b:1,h:100,c:256]                                  25,600                      eltwise_132   |                                        Eltwise/mul_[107]                                                             
                                                                                                                                       eltwise_138   | 
------ ------------------------------------------------ ----------------------- ----------------- --------------- -------------------------------- --- --------------- ---------------------- ----------------------------------------------------------------------------- 
140    eltwise_140 (Eltwise, MUL)                       [b:1,h:100,c:256]                                     100                       reduce_133   |                                        Eltwise/mul_[105]                                                             
                                                                                                                                       eltwise_138   | 
------ ------------------------------------------------ ----------------------- ----------------- --------------- -------------------------------- --- --------------- ---------------------- ----------------------------------------------------------------------------- 
141    tiny_bert_generato..VariableOp (Placeholder, )   [b:256]                 256/256                                                              |                 +256(+100.0%)          Eltwise/sub_[106]                                                             
       eltwise_141 (Eltwise, SUB)                       [b:1,h:100,c:256]                                     256   tiny_bert_generato..VariableOp   |                 -256(-100.0%)          
                                                                                                                                       eltwise_140   | 
------ ------------------------------------------------ ----------------------- ----------------- --------------- -------------------------------- --- --------------- ---------------------- ----------------------------------------------------------------------------- 
142    eltwise_142 (Eltwise, ADD)                       [b:1,h:100,c:256]                                  25,600                      eltwise_139   |                                        Eltwise/add_[108]                                                             
                                                                                                                                       eltwise_141   | 
------ ------------------------------------------------ ----------------------- ----------------- --------------- -------------------------------- --- --------------- ---------------------- ----------------------------------------------------------------------------- 
150    reshape_150 (Reshape, RESHAPE)                   [b:100,c:256]                                                                  eltwise_142   |                                        
------ ------------------------------------------------ ----------------------- ----------------- --------------- -------------------------------- --- --------------- ---------------------- ----------------------------------------------------------------------------- 
151    tiny_bert_generato..dot_MatMul (Placeholder, )   [b:512,c:256]           131,072/131,072                                                      | +2,048(+1.6%)   +13,107,712(+100.0%)   Conv2D_[109]                                                                  
       gemm_151 (Gemm, FULLY_CONNECTED)                 [b:100,c:512]                                     131,584                      reshape_150   |                 -131,584(-100.0%)      
                                                                                                                    tiny_bert_generato..dot_MatMul   | 
------ ------------------------------------------------ ----------------------- ----------------- --------------- -------------------------------- --- --------------- ---------------------- ----------------------------------------------------------------------------- 
152    reshape_152 (Reshape, RESHAPE)                   [b:1,h:100,c:512]                                                                 gemm_151   |                                        
------ ------------------------------------------------ ----------------------- ----------------- --------------- -------------------------------- --- --------------- ---------------------- ----------------------------------------------------------------------------- 
153    tiny_bert_generato..VariableOp (Placeholder, )   [b:512]                 512/512                                                              |                 +51,200(+100.0%)       Eltwise/add_[110]                                                             
       eltwise_153 (Eltwise, ADD)                       [b:1,h:100,c:512]                                  51,200                      reshape_152   |                 -51,200(-100.0%)       
                                                                                                                    tiny_bert_generato..VariableOp   | 
       nl_153_nl (Nonlinearity, ADD)                    [b:1,h:100,c:512]                                  51,200                      eltwise_153   |                 -51,200(-100.0%)       
------ ------------------------------------------------ ----------------------- ----------------- --------------- -------------------------------- --- --------------- ---------------------- ----------------------------------------------------------------------------- 
161    reshape_161 (Reshape, RESHAPE)                   [b:100,c:512]                                                                    nl_153_nl   |                                        
------ ------------------------------------------------ ----------------------- ----------------- --------------- -------------------------------- --- --------------- ---------------------- ----------------------------------------------------------------------------- 
162    tiny_bert_generato..dot_MatMul (Placeholder, )   [b:256,c:512]           131,072/131,072                                                      | +1,024(+0.8%)   +13,107,456(+100.0%)   Conv2D_[111]                                                                  
       gemm_162 (Gemm, FULLY_CONNECTED)                 [b:100,c:256]                                     131,328                      reshape_161   |                 -131,328(-100.0%)      
                                                                                                                    tiny_bert_generato..dot_MatMul   | 
------ ------------------------------------------------ ----------------------- ----------------- --------------- -------------------------------- --- --------------- ---------------------- ----------------------------------------------------------------------------- 
163    reshape_163 (Reshape, RESHAPE)                   [b:1,h:100,c:256]                                                                 gemm_162   |                                        
------ ------------------------------------------------ ----------------------- ----------------- --------------- -------------------------------- --- --------------- ---------------------- ----------------------------------------------------------------------------- 
164    tiny_bert_generato..VariableOp (Placeholder, )   [b:256]                 256/256                                                              |                 +25,600(+100.0%)       Eltwise/add_[112]                                                             
       eltwise_164 (Eltwise, ADD)                       [b:1,h:100,c:256]                                  25,600                      reshape_163   |                 -25,600(-100.0%)       
                                                                                                                    tiny_bert_generato..VariableOp   | 
------ ------------------------------------------------ ----------------------- ----------------- --------------- -------------------------------- --- --------------- ---------------------- ----------------------------------------------------------------------------- 
165    eltwise_165 (Eltwise, ADD)                       [b:1,h:100,c:256]                                  25,600                      eltwise_142   |                 +51,200(+200.0%)       Eltwise/add_/Conversion_[113, 114]                                            
                                                                                                                                       eltwise_164   | 
------ ------------------------------------------------ ----------------------- ----------------- --------------- -------------------------------- --- --------------- ---------------------- ----------------------------------------------------------------------------- 
166    reduce_166 (Reduce, MEAN)                        [b:1,h:100,c:1]                                    51,200                      eltwise_165   | +8(+100.0%)     -25,000(-48.8%)        Reduce_/ScaleBias_/Conversion_/Conversion_[115, 116, 117, 118]                
------ ------------------------------------------------ ----------------------- ----------------- --------------- -------------------------------- --- --------------- ---------------------- ----------------------------------------------------------------------------- 
167    eltwise_167 (Eltwise, SQUARED_DIFFERENCE)        [b:1,h:100,c:256]                                 128,000                      eltwise_165   |                                        Eltwise/squared_diff_[119]                                                    
                                                                                                                                        reduce_166   | 
------ ------------------------------------------------ ----------------------- ----------------- --------------- -------------------------------- --- --------------- ---------------------- ----------------------------------------------------------------------------- 
168    reduce_168 (Reduce, MEAN)                        [b:1,h:100,c:1]                                    51,200                      eltwise_167   | +8(+100.0%)     -25,200(-49.2%)        Reduce_/ScaleBias_/Conversion_[120, 121, 122]                                 
------ ------------------------------------------------ ----------------------- ----------------- --------------- -------------------------------- --- --------------- ---------------------- ----------------------------------------------------------------------------- 
169    eltwise_169 (Eltwise, ADD)                       [b:1,h:100,c:1]                                       100                       reduce_168   | +1(+100.0%)                            Eltwise/add_[123]                                                             
                                                                                                                    tiny_bert_generato..norm_add_y   | 
------ ------------------------------------------------ ----------------------- ----------------- --------------- -------------------------------- --- --------------- ---------------------- ----------------------------------------------------------------------------- 
170    nl_170 (Nonlinearity, RSQRT)                     [b:1,h:100,c:1]                                     1,200                      eltwise_169   |                 -1,100(-91.7%)         Nonlinearity_[124]                                                            
------ ------------------------------------------------ ----------------------- ----------------- --------------- -------------------------------- --- --------------- ---------------------- ----------------------------------------------------------------------------- 
171    tiny_bert_generato..VariableOp (Placeholder, )   [b:256]                 256/256                                                              |                 +100(+100.0%)          Eltwise/mul_[125]                                                             
       eltwise_171 (Eltwise, MUL)                       [b:1,h:100,c:256]                                     100                           nl_170   |                 -100(-100.0%)          
                                                                                                                    tiny_bert_generato..VariableOp   | 
------ ------------------------------------------------ ----------------------- ----------------- --------------- -------------------------------- --- --------------- ---------------------- ----------------------------------------------------------------------------- 
172    eltwise_172 (Eltwise, MUL)                       [b:1,h:100,c:256]                                  25,600                      eltwise_165   |                                        Eltwise/mul_[128]                                                             
                                                                                                                                       eltwise_171   | 
------ ------------------------------------------------ ----------------------- ----------------- --------------- -------------------------------- --- --------------- ---------------------- ----------------------------------------------------------------------------- 
173    eltwise_173 (Eltwise, MUL)                       [b:1,h:100,c:256]                                     100                       reduce_166   |                                        Eltwise/mul_[126]                                                             
                                                                                                                                       eltwise_171   | 
------ ------------------------------------------------ ----------------------- ----------------- --------------- -------------------------------- --- --------------- ---------------------- ----------------------------------------------------------------------------- 
174    tiny_bert_generato..VariableOp (Placeholder, )   [b:256]                 256/256                                                              |                 +256(+100.0%)          Eltwise/sub_[127]                                                             
       eltwise_174 (Eltwise, SUB)                       [b:1,h:100,c:256]                                     256   tiny_bert_generato..VariableOp   |                 -256(-100.0%)          
                                                                                                                                       eltwise_173   | 
------ ------------------------------------------------ ----------------------- ----------------- --------------- -------------------------------- --- --------------- ---------------------- ----------------------------------------------------------------------------- 
175    eltwise_175 (Eltwise, ADD)                       [b:1,h:100,c:256]                                  25,600                      eltwise_172   |                                        Eltwise/add_[129]                                                             
                                                                                                                                       eltwise_174   | 
------ ------------------------------------------------ ----------------------- ----------------- --------------- -------------------------------- --- --------------- ---------------------- ----------------------------------------------------------------------------- 
186    reshape_186 (Reshape, RESHAPE)                   [b:100,c:256]                                                                  eltwise_175   |                                        
------ ------------------------------------------------ ----------------------- ----------------- --------------- -------------------------------- --- --------------- ---------------------- ----------------------------------------------------------------------------- 
187    tiny_bert_generato..dot_MatMul (Placeholder, )   [b:256,c:256]           65,536/65,536                                                        | +1,024(+1.6%)   +6,553,856(+100.0%)    Conv2D_[138]                                                                  
       gemm_187 (Gemm, FULLY_CONNECTED)                 [b:100,c:256]                                      65,792                      reshape_186   |                 -65,792(-100.0%)       
                                                                                                                    tiny_bert_generato..dot_MatMul   | 
------ ------------------------------------------------ ----------------------- ----------------- --------------- -------------------------------- --- --------------- ---------------------- ----------------------------------------------------------------------------- 
188    reshape_188 (Reshape, RESHAPE)                   [b:1,h:100,c:256]                                                                 gemm_187   |                                        
------ ------------------------------------------------ ----------------------- ----------------- --------------- -------------------------------- --- --------------- ---------------------- ----------------------------------------------------------------------------- 
189    tiny_bert_generato..VariableOp (Placeholder, )   [b:256]                 256/256                                                              |                 +25,600(+100.0%)       Eltwise/add_[139]                                                             
       eltwise_189 (Eltwise, ADD)                       [b:1,h:100,c:256]                                  25,600                      reshape_188   |                 -25,600(-100.0%)       
                                                                                                                    tiny_bert_generato..VariableOp   | 
------ ------------------------------------------------ ----------------------- ----------------- --------------- -------------------------------- --- --------------- ---------------------- ----------------------------------------------------------------------------- 
190    reshape_190 (Reshape, RESHAPE)                   [b:1,h:100,w:4,c:64]                                                           eltwise_189   |                                        
------ ------------------------------------------------ ----------------------- ----------------- --------------- -------------------------------- --- --------------- ---------------------- ----------------------------------------------------------------------------- 
191    transpose_191 (Transpose, TRANSPOSE)             [b:1,h:4,w:100,c:64]                               12,800                      reshape_190   |                 -12,800(-100.0%)       
------ ------------------------------------------------ ----------------------- ----------------- --------------- -------------------------------- --- --------------- ---------------------- ----------------------------------------------------------------------------- 
192    tiny_bert_generato..dot_MatMul (Placeholder, )   [b:256,c:256]           65,536/65,536                                                        | +1,024(+1.6%)   +6,553,856(+100.0%)    Conv2D_[134]                                                                  
       gemm_192 (Gemm, FULLY_CONNECTED)                 [b:100,c:256]                                      65,792                      reshape_186   |                 -65,792(-100.0%)       
                                                                                                                    tiny_bert_generato..dot_MatMul   | 
------ ------------------------------------------------ ----------------------- ----------------- --------------- -------------------------------- --- --------------- ---------------------- ----------------------------------------------------------------------------- 
193    reshape_193 (Reshape, RESHAPE)                   [b:1,h:100,c:256]                                                                 gemm_192   |                                        
------ ------------------------------------------------ ----------------------- ----------------- --------------- -------------------------------- --- --------------- ---------------------- ----------------------------------------------------------------------------- 
194    tiny_bert_generato..VariableOp (Placeholder, )   [b:256]                 256/256                                                              |                 +25,600(+100.0%)       Eltwise/add_[135]                                                             
       eltwise_194 (Eltwise, ADD)                       [b:1,h:100,c:256]                                  25,600                      reshape_193   |                 -25,600(-100.0%)       
                                                                                                                    tiny_bert_generato..VariableOp   | 
------ ------------------------------------------------ ----------------------- ----------------- --------------- -------------------------------- --- --------------- ---------------------- ----------------------------------------------------------------------------- 
195    reshape_195 (Reshape, RESHAPE)                   [b:1,h:100,w:4,c:64]                                                           eltwise_194   |                                        
------ ------------------------------------------------ ----------------------- ----------------- --------------- -------------------------------- --- --------------- ---------------------- ----------------------------------------------------------------------------- 
196    transpose_196 (Transpose, TRANSPOSE)             [b:1,h:4,w:100,c:64]                               12,800                      reshape_195   |                 +51,200(+400.0%)       Transpose_/Conversion_[136, 137]                                              
------ ------------------------------------------------ ----------------------- ----------------- --------------- -------------------------------- --- --------------- ---------------------- ----------------------------------------------------------------------------- 
197    gemm_197 (Gemm, BATCH_MATMUL)                    [b:1,h:4,w:100,c:100]                       1,024,040,000                    transpose_196   | +1(+100.0%)     +144,002(+0.0%)        Conversion_/Transpose_/Conversion_/Gemm_/Conversion_[3, 140, 141, 142, 143]   
                                                                                                                                     transpose_191   | 
------ ------------------------------------------------ ----------------------- ----------------- --------------- -------------------------------- --- --------------- ---------------------- ----------------------------------------------------------------------------- 
198    eltwise_198 (Eltwise, MUL)                       [b:1,h:4,w:100,c:100]                              40,000                         gemm_197   | +1(+100.0%)                            Eltwise/mul_[144]                                                             
                                                                                                                    tiny_bert_generato..3_mha_Sqrt   | 
------ ------------------------------------------------ ----------------------- ----------------- --------------- -------------------------------- --- --------------- ---------------------- ----------------------------------------------------------------------------- 
199    nl_199 (Nonlinearity, SOFTMAX)                   [b:1,h:4,w:100,c:100]                             600,000                      eltwise_198   |                 +80,000(+13.3%)        Nonlinearity_/Conversion_[145, 146]                                           
------ ------------------------------------------------ ----------------------- ----------------- --------------- -------------------------------- --- --------------- ---------------------- ----------------------------------------------------------------------------- 
200    tiny_bert_generato..dot_MatMul (Placeholder, )   [b:256,c:256]           65,536/65,536                                                        | +1,024(+1.6%)   +6,553,856(+100.0%)    Conv2D_[130]                                                                  
       gemm_200 (Gemm, FULLY_CONNECTED)                 [b:100,c:256]                                      65,792                      reshape_186   |                 -65,792(-100.0%)       
                                                                                                                    tiny_bert_generato..dot_MatMul   | 
------ ------------------------------------------------ ----------------------- ----------------- --------------- -------------------------------- --- --------------- ---------------------- ----------------------------------------------------------------------------- 
201    reshape_201 (Reshape, RESHAPE)                   [b:1,h:100,c:256]                                                                 gemm_200   |                                        
------ ------------------------------------------------ ----------------------- ----------------- --------------- -------------------------------- --- --------------- ---------------------- ----------------------------------------------------------------------------- 
202    tiny_bert_generato..VariableOp (Placeholder, )   [b:256]                 256/256                                                              |                 +25,600(+100.0%)       Eltwise/add_[131]                                                             
       eltwise_202 (Eltwise, ADD)                       [b:1,h:100,c:256]                                  25,600                      reshape_201   |                 -25,600(-100.0%)       
                                                                                                                    tiny_bert_generato..VariableOp   | 
------ ------------------------------------------------ ----------------------- ----------------- --------------- -------------------------------- --- --------------- ---------------------- ----------------------------------------------------------------------------- 
203    reshape_203 (Reshape, RESHAPE)                   [b:1,h:100,w:4,c:64]                                                           eltwise_202   |                                        
------ ------------------------------------------------ ----------------------- ----------------- --------------- -------------------------------- --- --------------- ---------------------- ----------------------------------------------------------------------------- 
204    transpose_204 (Transpose, TRANSPOSE)             [b:1,h:4,w:100,c:64]                               12,800                      reshape_203   |                 +51,200(+400.0%)       Transpose_/Conversion_[132, 133]                                              
------ ------------------------------------------------ ----------------------- ----------------- --------------- -------------------------------- --- --------------- ---------------------- ----------------------------------------------------------------------------- 
205    gemm_205 (Gemm, BATCH_MATMUL)                    [b:1,h:4,w:100,c:64]                        1,024,025,600                           nl_199   | +1(+100.0%)     +51,202(+0.0%)         Conversion_/Gemm_/Conversion_[2, 147, 148]                                    
                                                                                                                                     transpose_204   | 
------ ------------------------------------------------ ----------------------- ----------------- --------------- -------------------------------- --- --------------- ---------------------- ----------------------------------------------------------------------------- 
206    transpose_206 (Transpose, TRANSPOSE)             [b:1,h:100,w:4,c:64]                               12,800                         gemm_205   |                                        Transpose_[149]                                                               
------ ------------------------------------------------ ----------------------- ----------------- --------------- -------------------------------- --- --------------- ---------------------- ----------------------------------------------------------------------------- 
207    reshape_207 (Reshape, RESHAPE)                   [b:1,h:100,c:256]                                                            transpose_206   |                                        
------ ------------------------------------------------ ----------------------- ----------------- --------------- -------------------------------- --- --------------- ---------------------- ----------------------------------------------------------------------------- 
215    reshape_215 (Reshape, RESHAPE)                   [b:100,c:256]                                                                transpose_206   |                                        
------ ------------------------------------------------ ----------------------- ----------------- --------------- -------------------------------- --- --------------- ---------------------- ----------------------------------------------------------------------------- 
216    tiny_bert_generato..dot_MatMul (Placeholder, )   [b:256,c:256]           65,536/65,536                                                        | +1,024(+1.6%)   +6,553,856(+100.0%)    Conv2D_[150]                                                                  
       gemm_216 (Gemm, FULLY_CONNECTED)                 [b:100,c:256]                                      65,792                      reshape_215   |                 -65,792(-100.0%)       
                                                                                                                    tiny_bert_generato..dot_MatMul   | 
------ ------------------------------------------------ ----------------------- ----------------- --------------- -------------------------------- --- --------------- ---------------------- ----------------------------------------------------------------------------- 
217    reshape_217 (Reshape, RESHAPE)                   [b:1,h:100,c:256]                                                                 gemm_216   |                                        
------ ------------------------------------------------ ----------------------- ----------------- --------------- -------------------------------- --- --------------- ---------------------- ----------------------------------------------------------------------------- 
218    tiny_bert_generato..VariableOp (Placeholder, )   [b:256]                 256/256                                                              |                 +25,600(+100.0%)       Eltwise/add_[151]                                                             
       eltwise_218 (Eltwise, ADD)                       [b:1,h:100,c:256]                                  25,600                      reshape_217   |                 -25,600(-100.0%)       
                                                                                                                    tiny_bert_generato..VariableOp   | 
------ ------------------------------------------------ ----------------------- ----------------- --------------- -------------------------------- --- --------------- ---------------------- ----------------------------------------------------------------------------- 
219    eltwise_219 (Eltwise, ADD)                       [b:1,h:100,c:256]                                  25,600                      eltwise_175   |                 +51,200(+200.0%)       Eltwise/add_/Conversion_[152, 153]                                            
                                                                                                                                       eltwise_218   | 
------ ------------------------------------------------ ----------------------- ----------------- --------------- -------------------------------- --- --------------- ---------------------- ----------------------------------------------------------------------------- 
220    reduce_220 (Reduce, MEAN)                        [b:1,h:100,c:1]                                    51,200                      eltwise_219   | +8(+100.0%)     -25,000(-48.8%)        Reduce_/ScaleBias_/Conversion_/Conversion_[154, 155, 156, 157]                
------ ------------------------------------------------ ----------------------- ----------------- --------------- -------------------------------- --- --------------- ---------------------- ----------------------------------------------------------------------------- 
221    eltwise_221 (Eltwise, SQUARED_DIFFERENCE)        [b:1,h:100,c:256]                                 128,000                      eltwise_219   |                                        Eltwise/squared_diff_[158]                                                    
                                                                                                                                        reduce_220   | 
------ ------------------------------------------------ ----------------------- ----------------- --------------- -------------------------------- --- --------------- ---------------------- ----------------------------------------------------------------------------- 
222    reduce_222 (Reduce, MEAN)                        [b:1,h:100,c:1]                                    51,200                      eltwise_221   | +8(+100.0%)     -25,200(-49.2%)        Reduce_/ScaleBias_/Conversion_[159, 160, 161]                                 
------ ------------------------------------------------ ----------------------- ----------------- --------------- -------------------------------- --- --------------- ---------------------- ----------------------------------------------------------------------------- 
223    eltwise_223 (Eltwise, ADD)                       [b:1,h:100,c:1]                                       100                       reduce_222   | +1(+100.0%)                            Eltwise/add_[162]                                                             
                                                                                                                    tiny_bert_generato..norm_add_y   | 
------ ------------------------------------------------ ----------------------- ----------------- --------------- -------------------------------- --- --------------- ---------------------- ----------------------------------------------------------------------------- 
224    nl_224 (Nonlinearity, RSQRT)                     [b:1,h:100,c:1]                                     1,200                      eltwise_223   |                 -1,100(-91.7%)         Nonlinearity_[163]                                                            
------ ------------------------------------------------ ----------------------- ----------------- --------------- -------------------------------- --- --------------- ---------------------- ----------------------------------------------------------------------------- 
225    tiny_bert_generato..VariableOp (Placeholder, )   [b:256]                 256/256                                                              |                 +100(+100.0%)          Eltwise/mul_[164]                                                             
       eltwise_225 (Eltwise, MUL)                       [b:1,h:100,c:256]                                     100                           nl_224   |                 -100(-100.0%)          
                                                                                                                    tiny_bert_generato..VariableOp   | 
------ ------------------------------------------------ ----------------------- ----------------- --------------- -------------------------------- --- --------------- ---------------------- ----------------------------------------------------------------------------- 
226    eltwise_226 (Eltwise, MUL)                       [b:1,h:100,c:256]                                  25,600                      eltwise_219   |                                        Eltwise/mul_[167]                                                             
                                                                                                                                       eltwise_225   | 
------ ------------------------------------------------ ----------------------- ----------------- --------------- -------------------------------- --- --------------- ---------------------- ----------------------------------------------------------------------------- 
227    eltwise_227 (Eltwise, MUL)                       [b:1,h:100,c:256]                                     100                       reduce_220   |                                        Eltwise/mul_[165]                                                             
                                                                                                                                       eltwise_225   | 
------ ------------------------------------------------ ----------------------- ----------------- --------------- -------------------------------- --- --------------- ---------------------- ----------------------------------------------------------------------------- 
228    tiny_bert_generato..VariableOp (Placeholder, )   [b:256]                 256/256                                                              |                 +256(+100.0%)          Eltwise/sub_[166]                                                             
       eltwise_228 (Eltwise, SUB)                       [b:1,h:100,c:256]                                     256   tiny_bert_generato..VariableOp   |                 -256(-100.0%)          
                                                                                                                                       eltwise_227   | 
------ ------------------------------------------------ ----------------------- ----------------- --------------- -------------------------------- --- --------------- ---------------------- ----------------------------------------------------------------------------- 
229    eltwise_229 (Eltwise, ADD)                       [b:1,h:100,c:256]                                  25,600                      eltwise_226   |                                        Eltwise/add_[168]                                                             
                                                                                                                                       eltwise_228   | 
------ ------------------------------------------------ ----------------------- ----------------- --------------- -------------------------------- --- --------------- ---------------------- ----------------------------------------------------------------------------- 
237    reshape_237 (Reshape, RESHAPE)                   [b:100,c:256]                                                                  eltwise_229   |                                        
------ ------------------------------------------------ ----------------------- ----------------- --------------- -------------------------------- --- --------------- ---------------------- ----------------------------------------------------------------------------- 
238    tiny_bert_generato..dot_MatMul (Placeholder, )   [b:512,c:256]           131,072/131,072                                                      | +2,048(+1.6%)   +13,107,712(+100.0%)   Conv2D_[169]                                                                  
       gemm_238 (Gemm, FULLY_CONNECTED)                 [b:100,c:512]                                     131,584                      reshape_237   |                 -131,584(-100.0%)      
                                                                                                                    tiny_bert_generato..dot_MatMul   | 
------ ------------------------------------------------ ----------------------- ----------------- --------------- -------------------------------- --- --------------- ---------------------- ----------------------------------------------------------------------------- 
239    reshape_239 (Reshape, RESHAPE)                   [b:1,h:100,c:512]                                                                 gemm_238   |                                        
------ ------------------------------------------------ ----------------------- ----------------- --------------- -------------------------------- --- --------------- ---------------------- ----------------------------------------------------------------------------- 
240    tiny_bert_generato..VariableOp (Placeholder, )   [b:512]                 512/512                                                              |                 +51,200(+100.0%)       Eltwise/add_[170]                                                             
       eltwise_240 (Eltwise, ADD)                       [b:1,h:100,c:512]                                  51,200                      reshape_239   |                 -51,200(-100.0%)       
                                                                                                                    tiny_bert_generato..VariableOp   | 
       nl_240_nl (Nonlinearity, ADD)                    [b:1,h:100,c:512]                                  51,200                      eltwise_240   |                 -51,200(-100.0%)       
------ ------------------------------------------------ ----------------------- ----------------- --------------- -------------------------------- --- --------------- ---------------------- ----------------------------------------------------------------------------- 
248    reshape_248 (Reshape, RESHAPE)                   [b:100,c:512]                                                                    nl_240_nl   |                                        
------ ------------------------------------------------ ----------------------- ----------------- --------------- -------------------------------- --- --------------- ---------------------- ----------------------------------------------------------------------------- 
249    tiny_bert_generato..dot_MatMul (Placeholder, )   [b:256,c:512]           131,072/131,072                                                      | +1,024(+0.8%)   +13,107,456(+100.0%)   Conv2D_[171]                                                                  
       gemm_249 (Gemm, FULLY_CONNECTED)                 [b:100,c:256]                                     131,328                      reshape_248   |                 -131,328(-100.0%)      
                                                                                                                    tiny_bert_generato..dot_MatMul   | 
------ ------------------------------------------------ ----------------------- ----------------- --------------- -------------------------------- --- --------------- ---------------------- ----------------------------------------------------------------------------- 
250    reshape_250 (Reshape, RESHAPE)                   [b:1,h:100,c:256]                                                                 gemm_249   |                                        
------ ------------------------------------------------ ----------------------- ----------------- --------------- -------------------------------- --- --------------- ---------------------- ----------------------------------------------------------------------------- 
251    tiny_bert_generato..VariableOp (Placeholder, )   [b:256]                 256/256                                                              |                 +25,600(+100.0%)       Eltwise/add_[172]                                                             
       eltwise_251 (Eltwise, ADD)                       [b:1,h:100,c:256]                                  25,600                      reshape_250   |                 -25,600(-100.0%)       
                                                                                                                    tiny_bert_generato..VariableOp   | 
------ ------------------------------------------------ ----------------------- ----------------- --------------- -------------------------------- --- --------------- ---------------------- ----------------------------------------------------------------------------- 
252    eltwise_252 (Eltwise, ADD)                       [b:1,h:100,c:256]                                  25,600                      eltwise_229   |                 +51,200(+200.0%)       Eltwise/add_/Conversion_[173, 174]                                            
                                                                                                                                       eltwise_251   | 
------ ------------------------------------------------ ----------------------- ----------------- --------------- -------------------------------- --- --------------- ---------------------- ----------------------------------------------------------------------------- 
253    reduce_253 (Reduce, MEAN)                        [b:1,h:100,c:1]                                    51,200                      eltwise_252   | +8(+100.0%)     -25,000(-48.8%)        Reduce_/ScaleBias_/Conversion_/Conversion_[175, 176, 177, 178]                
------ ------------------------------------------------ ----------------------- ----------------- --------------- -------------------------------- --- --------------- ---------------------- ----------------------------------------------------------------------------- 
254    eltwise_254 (Eltwise, SQUARED_DIFFERENCE)        [b:1,h:100,c:256]                                 128,000                      eltwise_252   |                                        Eltwise/squared_diff_[179]                                                    
                                                                                                                                        reduce_253   | 
------ ------------------------------------------------ ----------------------- ----------------- --------------- -------------------------------- --- --------------- ---------------------- ----------------------------------------------------------------------------- 
255    reduce_255 (Reduce, MEAN)                        [b:1,h:100,c:1]                                    51,200                      eltwise_254   | +8(+100.0%)     -25,200(-49.2%)        Reduce_/ScaleBias_/Conversion_[180, 181, 182]                                 
------ ------------------------------------------------ ----------------------- ----------------- --------------- -------------------------------- --- --------------- ---------------------- ----------------------------------------------------------------------------- 
256    eltwise_256 (Eltwise, ADD)                       [b:1,h:100,c:1]                                       100                       reduce_255   | +1(+100.0%)                            Eltwise/add_[183]                                                             
                                                                                                                    tiny_bert_generato..norm_add_y   | 
------ ------------------------------------------------ ----------------------- ----------------- --------------- -------------------------------- --- --------------- ---------------------- ----------------------------------------------------------------------------- 
257    nl_257 (Nonlinearity, RSQRT)                     [b:1,h:100,c:1]                                     1,200                      eltwise_256   |                 -1,100(-91.7%)         Nonlinearity_[184]                                                            
------ ------------------------------------------------ ----------------------- ----------------- --------------- -------------------------------- --- --------------- ---------------------- ----------------------------------------------------------------------------- 
258    tiny_bert_generato..VariableOp (Placeholder, )   [b:256]                 256/256                                                              |                 +100(+100.0%)          Eltwise/mul_[185]                                                             
       eltwise_258 (Eltwise, MUL)                       [b:1,h:100,c:256]                                     100                           nl_257   |                 -100(-100.0%)          
                                                                                                                    tiny_bert_generato..VariableOp   | 
------ ------------------------------------------------ ----------------------- ----------------- --------------- -------------------------------- --- --------------- ---------------------- ----------------------------------------------------------------------------- 
259    eltwise_259 (Eltwise, MUL)                       [b:1,h:100,c:256]                                  25,600                      eltwise_252   |                                        Eltwise/mul_[188]                                                             
                                                                                                                                       eltwise_258   | 
------ ------------------------------------------------ ----------------------- ----------------- --------------- -------------------------------- --- --------------- ---------------------- ----------------------------------------------------------------------------- 
260    eltwise_260 (Eltwise, MUL)                       [b:1,h:100,c:256]                                     100                       reduce_253   |                                        Eltwise/mul_[186]                                                             
                                                                                                                                       eltwise_258   | 
------ ------------------------------------------------ ----------------------- ----------------- --------------- -------------------------------- --- --------------- ---------------------- ----------------------------------------------------------------------------- 
261    tiny_bert_generato..VariableOp (Placeholder, )   [b:256]                 256/256                                                              |                 +256(+100.0%)          Eltwise/sub_[187]                                                             
       eltwise_261 (Eltwise, SUB)                       [b:1,h:100,c:256]                                     256   tiny_bert_generato..VariableOp   |                 -256(-100.0%)          
                                                                                                                                       eltwise_260   | 
------ ------------------------------------------------ ----------------------- ----------------- --------------- -------------------------------- --- --------------- ---------------------- ----------------------------------------------------------------------------- 
262    eltwise_262 (Eltwise, ADD)                       [b:1,h:100,c:256]                                  25,600                      eltwise_259   |                                        Eltwise/add_[189]                                                             
                                                                                                                                       eltwise_261   | 
------ ------------------------------------------------ ----------------------- ----------------- --------------- -------------------------------- --- --------------- ---------------------- ----------------------------------------------------------------------------- 
273    reshape_273 (Reshape, RESHAPE)                   [b:100,c:256]                                                                  eltwise_262   |                                        
------ ------------------------------------------------ ----------------------- ----------------- --------------- -------------------------------- --- --------------- ---------------------- ----------------------------------------------------------------------------- 
274    tiny_bert_generato..dot_MatMul (Placeholder, )   [b:256,c:256]           65,536/65,536                                                        | +1,024(+1.6%)   +6,553,856(+100.0%)    Conv2D_[198]                                                                  
       gemm_274 (Gemm, FULLY_CONNECTED)                 [b:100,c:256]                                      65,792                      reshape_273   |                 -65,792(-100.0%)       
                                                                                                                    tiny_bert_generato..dot_MatMul   | 
------ ------------------------------------------------ ----------------------- ----------------- --------------- -------------------------------- --- --------------- ---------------------- ----------------------------------------------------------------------------- 
275    reshape_275 (Reshape, RESHAPE)                   [b:1,h:100,c:256]                                                                 gemm_274   |                                        
------ ------------------------------------------------ ----------------------- ----------------- --------------- -------------------------------- --- --------------- ---------------------- ----------------------------------------------------------------------------- 
276    tiny_bert_generato..VariableOp (Placeholder, )   [b:256]                 256/256                                                              |                 +25,600(+100.0%)       Eltwise/add_[199]                                                             
       eltwise_276 (Eltwise, ADD)                       [b:1,h:100,c:256]                                  25,600                      reshape_275   |                 -25,600(-100.0%)       
                                                                                                                    tiny_bert_generato..VariableOp   | 
------ ------------------------------------------------ ----------------------- ----------------- --------------- -------------------------------- --- --------------- ---------------------- ----------------------------------------------------------------------------- 
277    reshape_277 (Reshape, RESHAPE)                   [b:1,h:100,w:4,c:64]                                                           eltwise_276   |                                        
------ ------------------------------------------------ ----------------------- ----------------- --------------- -------------------------------- --- --------------- ---------------------- ----------------------------------------------------------------------------- 
278    transpose_278 (Transpose, TRANSPOSE)             [b:1,h:4,w:100,c:64]                               12,800                      reshape_277   |                 -12,800(-100.0%)       
------ ------------------------------------------------ ----------------------- ----------------- --------------- -------------------------------- --- --------------- ---------------------- ----------------------------------------------------------------------------- 
279    tiny_bert_generato..dot_MatMul (Placeholder, )   [b:256,c:256]           65,536/65,536                                                        | +1,024(+1.6%)   +6,553,856(+100.0%)    Conv2D_[194]                                                                  
       gemm_279 (Gemm, FULLY_CONNECTED)                 [b:100,c:256]                                      65,792                      reshape_273   |                 -65,792(-100.0%)       
                                                                                                                    tiny_bert_generato..dot_MatMul   | 
------ ------------------------------------------------ ----------------------- ----------------- --------------- -------------------------------- --- --------------- ---------------------- ----------------------------------------------------------------------------- 
280    reshape_280 (Reshape, RESHAPE)                   [b:1,h:100,c:256]                                                                 gemm_279   |                                        
------ ------------------------------------------------ ----------------------- ----------------- --------------- -------------------------------- --- --------------- ---------------------- ----------------------------------------------------------------------------- 
281    tiny_bert_generato..VariableOp (Placeholder, )   [b:256]                 256/256                                                              |                 +25,600(+100.0%)       Eltwise/add_[195]                                                             
       eltwise_281 (Eltwise, ADD)                       [b:1,h:100,c:256]                                  25,600                      reshape_280   |                 -25,600(-100.0%)       
                                                                                                                    tiny_bert_generato..VariableOp   | 
------ ------------------------------------------------ ----------------------- ----------------- --------------- -------------------------------- --- --------------- ---------------------- ----------------------------------------------------------------------------- 
282    reshape_282 (Reshape, RESHAPE)                   [b:1,h:100,w:4,c:64]                                                           eltwise_281   |                                        
------ ------------------------------------------------ ----------------------- ----------------- --------------- -------------------------------- --- --------------- ---------------------- ----------------------------------------------------------------------------- 
283    transpose_283 (Transpose, TRANSPOSE)             [b:1,h:4,w:100,c:64]                               12,800                      reshape_282   |                 +51,200(+400.0%)       Transpose_/Conversion_[196, 197]                                              
------ ------------------------------------------------ ----------------------- ----------------- --------------- -------------------------------- --- --------------- ---------------------- ----------------------------------------------------------------------------- 
284    gemm_284 (Gemm, BATCH_MATMUL)                    [b:1,h:4,w:100,c:100]                       1,024,040,000                    transpose_283   | +1(+100.0%)     +144,002(+0.0%)        Conversion_/Transpose_/Conversion_/Gemm_/Conversion_[1, 200, 201, 202, 203]   
                                                                                                                                     transpose_278   | 
------ ------------------------------------------------ ----------------------- ----------------- --------------- -------------------------------- --- --------------- ---------------------- ----------------------------------------------------------------------------- 
285    eltwise_285 (Eltwise, MUL)                       [b:1,h:4,w:100,c:100]                              40,000                         gemm_284   | +1(+100.0%)                            Eltwise/mul_[204]                                                             
                                                                                                                    tiny_bert_generato..3_mha_Sqrt   | 
------ ------------------------------------------------ ----------------------- ----------------- --------------- -------------------------------- --- --------------- ---------------------- ----------------------------------------------------------------------------- 
286    nl_286 (Nonlinearity, SOFTMAX)                   [b:1,h:4,w:100,c:100]                             600,000                      eltwise_285   |                 +80,000(+13.3%)        Nonlinearity_/Conversion_[205, 206]                                           
------ ------------------------------------------------ ----------------------- ----------------- --------------- -------------------------------- --- --------------- ---------------------- ----------------------------------------------------------------------------- 
287    tiny_bert_generato..dot_MatMul (Placeholder, )   [b:256,c:256]           65,536/65,536                                                        | +1,024(+1.6%)   +6,553,856(+100.0%)    Conv2D_[190]                                                                  
       gemm_287 (Gemm, FULLY_CONNECTED)                 [b:100,c:256]                                      65,792                      reshape_273   |                 -65,792(-100.0%)       
                                                                                                                    tiny_bert_generato..dot_MatMul   | 
------ ------------------------------------------------ ----------------------- ----------------- --------------- -------------------------------- --- --------------- ---------------------- ----------------------------------------------------------------------------- 
288    reshape_288 (Reshape, RESHAPE)                   [b:1,h:100,c:256]                                                                 gemm_287   |                                        
------ ------------------------------------------------ ----------------------- ----------------- --------------- -------------------------------- --- --------------- ---------------------- ----------------------------------------------------------------------------- 
289    tiny_bert_generato..VariableOp (Placeholder, )   [b:256]                 256/256                                                              |                 +25,600(+100.0%)       Eltwise/add_[191]                                                             
       eltwise_289 (Eltwise, ADD)                       [b:1,h:100,c:256]                                  25,600                      reshape_288   |                 -25,600(-100.0%)       
                                                                                                                    tiny_bert_generato..VariableOp   | 
------ ------------------------------------------------ ----------------------- ----------------- --------------- -------------------------------- --- --------------- ---------------------- ----------------------------------------------------------------------------- 
290    reshape_290 (Reshape, RESHAPE)                   [b:1,h:100,w:4,c:64]                                                           eltwise_289   |                                        
------ ------------------------------------------------ ----------------------- ----------------- --------------- -------------------------------- --- --------------- ---------------------- ----------------------------------------------------------------------------- 
291    transpose_291 (Transpose, TRANSPOSE)             [b:1,h:4,w:100,c:64]                               12,800                      reshape_290   |                 +51,200(+400.0%)       Transpose_/Conversion_[192, 193]                                              
------ ------------------------------------------------ ----------------------- ----------------- --------------- -------------------------------- --- --------------- ---------------------- ----------------------------------------------------------------------------- 
292    gemm_292 (Gemm, BATCH_MATMUL)                    [b:1,h:4,w:100,c:64]                        1,024,025,600                           nl_286   | +1(+100.0%)     +51,202(+0.0%)         Conversion_/Gemm_/Conversion_[0, 207, 208]                                    
                                                                                                                                     transpose_291   | 
------ ------------------------------------------------ ----------------------- ----------------- --------------- -------------------------------- --- --------------- ---------------------- ----------------------------------------------------------------------------- 
293    transpose_293 (Transpose, TRANSPOSE)             [b:1,h:100,w:4,c:64]                               12,800                         gemm_292   |                                        Transpose_[209]                                                               
------ ------------------------------------------------ ----------------------- ----------------- --------------- -------------------------------- --- --------------- ---------------------- ----------------------------------------------------------------------------- 
294    reshape_294 (Reshape, RESHAPE)                   [b:1,h:100,c:256]                                                            transpose_293   |                                        
------ ------------------------------------------------ ----------------------- ----------------- --------------- -------------------------------- --- --------------- ---------------------- ----------------------------------------------------------------------------- 
302    reshape_302 (Reshape, RESHAPE)                   [b:100,c:256]                                                                transpose_293   |                                        
------ ------------------------------------------------ ----------------------- ----------------- --------------- -------------------------------- --- --------------- ---------------------- ----------------------------------------------------------------------------- 
303    tiny_bert_generato..dot_MatMul (Placeholder, )   [b:256,c:256]           65,536/65,536                                                        | +1,024(+1.6%)   +6,553,856(+100.0%)    Conv2D_[210]                                                                  
       gemm_303 (Gemm, FULLY_CONNECTED)                 [b:100,c:256]                                      65,792                      reshape_302   |                 -65,792(-100.0%)       
                                                                                                                    tiny_bert_generato..dot_MatMul   | 
------ ------------------------------------------------ ----------------------- ----------------- --------------- -------------------------------- --- --------------- ---------------------- ----------------------------------------------------------------------------- 
304    reshape_304 (Reshape, RESHAPE)                   [b:1,h:100,c:256]                                                                 gemm_303   |                                        
------ ------------------------------------------------ ----------------------- ----------------- --------------- -------------------------------- --- --------------- ---------------------- ----------------------------------------------------------------------------- 
305    tiny_bert_generato..VariableOp (Placeholder, )   [b:256]                 256/256                                                              |                 +25,600(+100.0%)       Eltwise/add_[211]                                                             
       eltwise_305 (Eltwise, ADD)                       [b:1,h:100,c:256]                                  25,600                      reshape_304   |                 -25,600(-100.0%)       
                                                                                                                    tiny_bert_generato..VariableOp   | 
------ ------------------------------------------------ ----------------------- ----------------- --------------- -------------------------------- --- --------------- ---------------------- ----------------------------------------------------------------------------- 
306    eltwise_306 (Eltwise, ADD)                       [b:1,h:100,c:256]                                  25,600                      eltwise_262   |                 +51,200(+200.0%)       Eltwise/add_/Conversion_[212, 213]                                            
                                                                                                                                       eltwise_305   | 
------ ------------------------------------------------ ----------------------- ----------------- --------------- -------------------------------- --- --------------- ---------------------- ----------------------------------------------------------------------------- 
307    reduce_307 (Reduce, MEAN)                        [b:1,h:100,c:1]                                    51,200                      eltwise_306   | +8(+100.0%)     -25,000(-48.8%)        Reduce_/ScaleBias_/Conversion_/Conversion_[214, 215, 216, 217]                
------ ------------------------------------------------ ----------------------- ----------------- --------------- -------------------------------- --- --------------- ---------------------- ----------------------------------------------------------------------------- 
308    eltwise_308 (Eltwise, SQUARED_DIFFERENCE)        [b:1,h:100,c:256]                                 128,000                      eltwise_306   |                                        Eltwise/squared_diff_[218]                                                    
                                                                                                                                        reduce_307   | 
------ ------------------------------------------------ ----------------------- ----------------- --------------- -------------------------------- --- --------------- ---------------------- ----------------------------------------------------------------------------- 
309    reduce_309 (Reduce, MEAN)                        [b:1,h:100,c:1]                                    51,200                      eltwise_308   | +8(+100.0%)     -25,200(-49.2%)        Reduce_/ScaleBias_/Conversion_[219, 220, 221]                                 
------ ------------------------------------------------ ----------------------- ----------------- --------------- -------------------------------- --- --------------- ---------------------- ----------------------------------------------------------------------------- 
310    eltwise_310 (Eltwise, ADD)                       [b:1,h:100,c:1]                                       100                       reduce_309   | +1(+100.0%)                            Eltwise/add_[222]                                                             
                                                                                                                    tiny_bert_generato..norm_add_y   | 
------ ------------------------------------------------ ----------------------- ----------------- --------------- -------------------------------- --- --------------- ---------------------- ----------------------------------------------------------------------------- 
311    nl_311 (Nonlinearity, RSQRT)                     [b:1,h:100,c:1]                                     1,200                      eltwise_310   |                 -1,100(-91.7%)         Nonlinearity_[223]                                                            
------ ------------------------------------------------ ----------------------- ----------------- --------------- -------------------------------- --- --------------- ---------------------- ----------------------------------------------------------------------------- 
312    tiny_bert_generato..VariableOp (Placeholder, )   [b:256]                 256/256                                                              |                 +100(+100.0%)          Eltwise/mul_[224]                                                             
       eltwise_312 (Eltwise, MUL)                       [b:1,h:100,c:256]                                     100                           nl_311   |                 -100(-100.0%)          
                                                                                                                    tiny_bert_generato..VariableOp   | 
------ ------------------------------------------------ ----------------------- ----------------- --------------- -------------------------------- --- --------------- ---------------------- ----------------------------------------------------------------------------- 
313    eltwise_313 (Eltwise, MUL)                       [b:1,h:100,c:256]                                  25,600                      eltwise_306   |                                        Eltwise/mul_[227]                                                             
                                                                                                                                       eltwise_312   | 
------ ------------------------------------------------ ----------------------- ----------------- --------------- -------------------------------- --- --------------- ---------------------- ----------------------------------------------------------------------------- 
314    eltwise_314 (Eltwise, MUL)                       [b:1,h:100,c:256]                                     100                       reduce_307   |                                        Eltwise/mul_[225]                                                             
                                                                                                                                       eltwise_312   | 
------ ------------------------------------------------ ----------------------- ----------------- --------------- -------------------------------- --- --------------- ---------------------- ----------------------------------------------------------------------------- 
315    tiny_bert_generato..VariableOp (Placeholder, )   [b:256]                 256/256                                                              |                 +256(+100.0%)          Eltwise/sub_[226]                                                             
       eltwise_315 (Eltwise, SUB)                       [b:1,h:100,c:256]                                     256   tiny_bert_generato..VariableOp   |                 -256(-100.0%)          
                                                                                                                                       eltwise_314   | 
------ ------------------------------------------------ ----------------------- ----------------- --------------- -------------------------------- --- --------------- ---------------------- ----------------------------------------------------------------------------- 
316    eltwise_316 (Eltwise, ADD)                       [b:1,h:100,c:256]                                  25,600                      eltwise_313   |                                        Eltwise/add_[228]                                                             
                                                                                                                                       eltwise_315   | 
------ ------------------------------------------------ ----------------------- ----------------- --------------- -------------------------------- --- --------------- ---------------------- ----------------------------------------------------------------------------- 
324    reshape_324 (Reshape, RESHAPE)                   [b:100,c:256]                                                                  eltwise_316   |                                        
------ ------------------------------------------------ ----------------------- ----------------- --------------- -------------------------------- --- --------------- ---------------------- ----------------------------------------------------------------------------- 
325    tiny_bert_generato..dot_MatMul (Placeholder, )   [b:512,c:256]           131,072/131,072                                                      | +2,048(+1.6%)   +13,107,712(+100.0%)   Conv2D_[229]                                                                  
       gemm_325 (Gemm, FULLY_CONNECTED)                 [b:100,c:512]                                     131,584                      reshape_324   |                 -131,584(-100.0%)      
                                                                                                                    tiny_bert_generato..dot_MatMul   | 
------ ------------------------------------------------ ----------------------- ----------------- --------------- -------------------------------- --- --------------- ---------------------- ----------------------------------------------------------------------------- 
326    reshape_326 (Reshape, RESHAPE)                   [b:1,h:100,c:512]                                                                 gemm_325   |                                        
------ ------------------------------------------------ ----------------------- ----------------- --------------- -------------------------------- --- --------------- ---------------------- ----------------------------------------------------------------------------- 
327    tiny_bert_generato..VariableOp (Placeholder, )   [b:512]                 512/512                                                              |                 +51,200(+100.0%)       Eltwise/add_[230]                                                             
       eltwise_327 (Eltwise, ADD)                       [b:1,h:100,c:512]                                  51,200                      reshape_326   |                 -51,200(-100.0%)       
                                                                                                                    tiny_bert_generato..VariableOp   | 
       nl_327_nl (Nonlinearity, ADD)                    [b:1,h:100,c:512]                                  51,200                      eltwise_327   |                 -51,200(-100.0%)       
------ ------------------------------------------------ ----------------------- ----------------- --------------- -------------------------------- --- --------------- ---------------------- ----------------------------------------------------------------------------- 
335    reshape_335 (Reshape, RESHAPE)                   [b:100,c:512]                                                                    nl_327_nl   |                                        
------ ------------------------------------------------ ----------------------- ----------------- --------------- -------------------------------- --- --------------- ---------------------- ----------------------------------------------------------------------------- 
336    tiny_bert_generato..dot_MatMul (Placeholder, )   [b:256,c:512]           131,072/131,072                                                      | +1,024(+0.8%)   +13,107,456(+100.0%)   Conv2D_[231]                                                                  
       gemm_336 (Gemm, FULLY_CONNECTED)                 [b:100,c:256]                                     131,328                      reshape_335   |                 -131,328(-100.0%)      
                                                                                                                    tiny_bert_generato..dot_MatMul   | 
------ ------------------------------------------------ ----------------------- ----------------- --------------- -------------------------------- --- --------------- ---------------------- ----------------------------------------------------------------------------- 
337    reshape_337 (Reshape, RESHAPE)                   [b:1,h:100,c:256]                                                                 gemm_336   |                                        
------ ------------------------------------------------ ----------------------- ----------------- --------------- -------------------------------- --- --------------- ---------------------- ----------------------------------------------------------------------------- 
338    tiny_bert_generato..VariableOp (Placeholder, )   [b:256]                 256/256                                                              |                 +25,600(+100.0%)       Eltwise/add_[232]                                                             
       eltwise_338 (Eltwise, ADD)                       [b:1,h:100,c:256]                                  25,600                      reshape_337   |                 -25,600(-100.0%)       
                                                                                                                    tiny_bert_generato..VariableOp   | 
------ ------------------------------------------------ ----------------------- ----------------- --------------- -------------------------------- --- --------------- ---------------------- ----------------------------------------------------------------------------- 
339    eltwise_339 (Eltwise, ADD)                       [b:1,h:100,c:256]                                  25,600                      eltwise_316   |                 +51,200(+200.0%)       Eltwise/add_/Conversion_[233, 234]                                            
                                                                                                                                       eltwise_338   | 
------ ------------------------------------------------ ----------------------- ----------------- --------------- -------------------------------- --- --------------- ---------------------- ----------------------------------------------------------------------------- 
340    reduce_340 (Reduce, MEAN)                        [b:1,h:100,c:1]                                    51,200                      eltwise_339   | +8(+100.0%)     -25,000(-48.8%)        Reduce_/ScaleBias_/Conversion_/Conversion_[235, 236, 237, 238]                
------ ------------------------------------------------ ----------------------- ----------------- --------------- -------------------------------- --- --------------- ---------------------- ----------------------------------------------------------------------------- 
341    eltwise_341 (Eltwise, SQUARED_DIFFERENCE)        [b:1,h:100,c:256]                                 128,000                      eltwise_339   |                                        Eltwise/squared_diff_[239]                                                    
                                                                                                                                        reduce_340   | 
------ ------------------------------------------------ ----------------------- ----------------- --------------- -------------------------------- --- --------------- ---------------------- ----------------------------------------------------------------------------- 
342    reduce_342 (Reduce, MEAN)                        [b:1,h:100,c:1]                                    51,200                      eltwise_341   | +8(+100.0%)     -25,200(-49.2%)        Reduce_/ScaleBias_/Conversion_[240, 241, 242]                                 
------ ------------------------------------------------ ----------------------- ----------------- --------------- -------------------------------- --- --------------- ---------------------- ----------------------------------------------------------------------------- 
…
250    gemm_358                                                               358   Conv2D                  1689666      17160    I: eltwise_349_output                                                            int8(1x100x256) (80)      
                                                                                                                                  S: gemm_358_scratch0                                                                                       
                                                                                                                                  W: gemm_358_weights                                                              int8(66x1x1x256) (202)    
                                                                                                                                  W: gemm_358_bias                                                                 int32(66) (199)           
                                                                                                                                  O: gemm_358_output                                                               int8(1x100x1x66) (200)    
------ ---------------------------------------------------------------------- ----- ----------------------- ------------ -------- -------------------------------------------------------------------------------- ------------------------- 
251    eltwise_360                                                            360   Eltwise/add             6600         66       I: gemm_358_output                                                               int8(1x100x1x66) (200)    
                                                                                                                                  W: tiny_bert_generator_output_dense_BiasAdd_ReadVariableOp_3D                    int8(1x66) (334)          
                                                                                                                                  O: eltwise_360_output                                                            int8(1x100x66) (81)       
------ ---------------------------------------------------------------------- ----- ----------------------- ------------ -------- -------------------------------------------------------------------------------- ------------------------- 



Number of operations per c-layer
------- ------ --------------------------------------------- --------------- -------------- 
c_id    m_id   name (type)                                               #op           type 
------- ------ --------------------------------------------- --------------- -------------- 
0       292    gemm_292_bias_0_conversion (Conversion)                     2     smul_s8_s8 
1       284    gemm_284_bias_0_2_..conversion (Conversion)                 2     smul_s8_s8 
2       205    gemm_205_bias_0_2_..conversion (Conversion)                 2     smul_s8_s8 
3       197    gemm_197_bias_0_2_..conversion (Conversion)                 2     smul_s8_s8 
4       118    gemm_118_bias_0_2_..conversion (Conversion)                 2     smul_s8_s8 
5       110    gemm_110_bias_0_2_..conversion (Conversion)                 2     smul_s8_s8 
6       31     gemm_31_bias_0_2_g..conversion (Conversion)                 2     smul_s8_s8 
7       23     gemm_23_bias_0_2_g..conversion (Conversion)                 2     smul_s8_s8 
8       0      eltwise_0 (Eltwise/mul)                                25,600       op_s8_s8 
9       1      eltwise_1 (Eltwise/add)                                25,600       op_s8_s8 
10      26     gemm_26 (Conv2D)                                    6,553,856     smul_s8_s8 
11      28     eltwise_28 (Eltwise/add)                               25,600       op_s8_s8 
12      30     transpose_30 (Transpose)                               12,800     smul_s8_s8 
13      30     transpose_30_0_1_g..conversion (Conversion)            51,200    smul_s8_f32 
14      18     gemm_18 (Conv2D)                                    6,553,856     smul_s8_s8 
15      20     eltwise_20 (Eltwise/add)                               25,600       op_s8_s8 
16      22     transpose_22 (Transpose)                               12,800     smul_s8_s8 
17      22     transpose_22_0_0_g..conversion (Conversion)            51,200    smul_s8_f32 
18      13     gemm_13 (Conv2D)                                    6,553,856     smul_s8_s8 
19      15     eltwise_15 (Eltwise/add)                               25,600       op_s8_s8 
20      23     transpose_bgemm_23_out (Transpose)                     12,800     smul_s8_s8 
21      23     transpose_bgemm_23..conversion (Conversion)            51,200    smul_s8_f32 
22      23     gemm_23 (Gemm)                                  1,024,040,000   smul_f32_f32 
23      23     gemm_23_0_0_eltwis..conversion (Conversion)            80,000    smul_f32_s8 
24      24     eltwise_24 (Eltwise/mul)                               40,000       op_s8_s8 
25      25     nl_25 (Nonlinearity)                                  600,000       op_s8_s8 
26      25     nl_25_0_0_gemm_31_conversion (Conversion)              80,000    smul_s8_f32 
27      31     gemm_31 (Gemm)                                  1,024,025,600   smul_f32_f32 
28      31     gemm_31_0_0_transp..conversion (Conversion)            51,200    smul_f32_s8 
29      32     transpose_32 (Transpose)                               12,800     smul_s8_s8 
30      42     gemm_42 (Conv2D)                                    6,553,856     smul_s8_s8 
31      44     eltwise_44 (Eltwise/add)                               25,600       op_s8_s8 
32      45     eltwise_45 (Eltwise/add)                               25,600       op_s8_s8 
33      45     eltwise_45_0_0_red..conversion (Conversion)            51,200    smul_s8_f32 
34      46     reduce_46 (Reduce)                                     25,600   smul_f32_f32 
35      46     reduce_46_Mul (ScaleBias)                                 200   smul_f32_f32 
36      46     reduce_46_Mul_0_1_..conversion (Conversion)               200    smul_f32_s8 
37      46     reduce_46_Mul_0_1_..conversion (Conversion)               200    smul_s8_f32 
38      47     eltwise_47 (Eltwise/squared_diff)                     128,000     op_f32_f32 
39      48     reduce_48 (Reduce)                                     25,600   smul_f32_f32 
40      48     reduce_48_Mul (ScaleBias)                                 200   smul_f32_f32 
41      48     reduce_48_Mul_0_0_..conversion (Conversion)               200    smul_f32_s8 
42      49     eltwise_49 (Eltwise/add)                                  100       op_s8_s8 
43      50     nl_50 (Nonlinearity)                                      100       op_s8_s8 
44      51     eltwise_51 (Eltwise/mul)                                  100       op_s8_s8 
45      53     eltwise_53 (Eltwise/mul)                                  100       op_s8_s8 
46      54     eltwise_54 (Eltwise/sub)                                  256       op_s8_s8 
47      52     eltwise_52 (Eltwise/mul)                               25,600       op_s8_s8 
48      55     eltwise_55 (Eltwise/add)                               25,600       op_s8_s8 
49      64     gemm_64 (Conv2D)                                   13,107,712     smul_s8_s8 
50      66     eltwise_66 (Eltwise/add)                               51,200       op_s8_s8 
51      75     gemm_75 (Conv2D)                                   13,107,456     smul_s8_s8 
52      77     eltwise_77 (Eltwise/add)                               25,600       op_s8_s8 
53      78     eltwise_78 (Eltwise/add)                               25,600       op_s8_s8 
54      78     eltwise_78_0_0_red..conversion (Conversion)            51,200    smul_s8_f32 
55      79     reduce_79 (Reduce)                                     25,600   smul_f32_f32 
56      79     reduce_79_Mul (ScaleBias)                                 200   smul_f32_f32 
57      79     reduce_79_Mul_0_1_..conversion (Conversion)               200    smul_f32_s8 
58      79     reduce_79_Mul_0_1_..conversion (Conversion)               200    smul_s8_f32 
59      80     eltwise_80 (Eltwise/squared_diff)                     128,000     op_f32_f32 
60      81     reduce_81 (Reduce)                                     25,600   smul_f32_f32 
61      81     reduce_81_Mul (ScaleBias)                                 200   smul_f32_f32 
62      81     reduce_81_Mul_0_0_..conversion (Conversion)               200    smul_f32_s8 
63      82     eltwise_82 (Eltwise/add)                                  100       op_s8_s8 
64      83     nl_83 (Nonlinearity)                                      100       op_s8_s8 
65      84     eltwise_84 (Eltwise/mul)                                  100       op_s8_s8 
66      86     eltwise_86 (Eltwise/mul)                                  100       op_s8_s8 
67      87     eltwise_87 (Eltwise/sub)                                  256       op_s8_s8 
68      85     eltwise_85 (Eltwise/mul)                               25,600       op_s8_s8 
69      88     eltwise_88 (Eltwise/add)                               25,600       op_s8_s8 
70      113    gemm_113 (Conv2D)                                   6,553,856     smul_s8_s8 
71      115    eltwise_115 (Eltwise/add)                              25,600       op_s8_s8 
72      117    transpose_117 (Transpose)                              12,800     smul_s8_s8 
73      117    transpose_117_0_1_..conversion (Conversion)            51,200    smul_s8_f32 
74      105    gemm_105 (Conv2D)                                   6,553,856     smul_s8_s8 
75      107    eltwise_107 (Eltwise/add)                              25,600       op_s8_s8 
76      109    transpose_109 (Transpose)                              12,800     smul_s8_s8 
77      109    transpose_109_0_0_..conversion (Conversion)            51,200    smul_s8_f32 
78      100    gemm_100 (Conv2D)                                   6,553,856     smul_s8_s8 
79      102    eltwise_102 (Eltwise/add)                              25,600       op_s8_s8 
80      110    transpose_bgemm_110_out (Transpose)                    12,800     smul_s8_s8 
81      110    transpose_bgemm_11..conversion (Conversion)            51,200    smul_s8_f32 
82      110    gemm_110 (Gemm)                                 1,024,040,000   smul_f32_f32 
83      110    gemm_110_0_0_eltwi..conversion (Conversion)            80,000    smul_f32_s8 
84      111    eltwise_111 (Eltwise/mul)                              40,000       op_s8_s8 
85      112    nl_112 (Nonlinearity)                                 600,000       op_s8_s8 
86      112    nl_112_0_0_gemm_118_conversion (Conversion)            80,000    smul_s8_f32 
87      118    gemm_118 (Gemm)                                 1,024,025,600   smul_f32_f32 
88      118    gemm_118_0_0_trans..conversion (Conversion)            51,200    smul_f32_s8 
89      119    transpose_119 (Transpose)                              12,800     smul_s8_s8 
90      129    gemm_129 (Conv2D)                                   6,553,856     smul_s8_s8 
91      131    eltwise_131 (Eltwise/add)                              25,600       op_s8_s8 
92      132    eltwise_132 (Eltwise/add)                              25,600       op_s8_s8 
93      132    eltwise_132_0_0_re..conversion (Conversion)            51,200    smul_s8_f32 
94      133    reduce_133 (Reduce)                                    25,600   smul_f32_f32 
95      133    reduce_133_Mul (ScaleBias)                                200   smul_f32_f32 
96      133    reduce_133_Mul_0_1..conversion (Conversion)               200    smul_f32_s8 
97      133    reduce_133_Mul_0_1..conversion (Conversion)               200    smul_s8_f32 
98      134    eltwise_134 (Eltwise/squared_diff)                    128,000     op_f32_f32 
99      135    reduce_135 (Reduce)                                    25,600   smul_f32_f32 
100     135    reduce_135_Mul (ScaleBias)                                200   smul_f32_f32 
101     135    reduce_135_Mul_0_0..conversion (Conversion)               200    smul_f32_s8 
102     136    eltwise_136 (Eltwise/add)                                 100       op_s8_s8 
103     137    nl_137 (Nonlinearity)                                     100       op_s8_s8 
104     138    eltwise_138 (Eltwise/mul)                                 100       op_s8_s8 
105     140    eltwise_140 (Eltwise/mul)                                 100       op_s8_s8 
106     141    eltwise_141 (Eltwise/sub)                                 256       op_s8_s8 
107     139    eltwise_139 (Eltwise/mul)                              25,600       op_s8_s8 
108     142    eltwise_142 (Eltwise/add)                              25,600       op_s8_s8 
109     151    gemm_151 (Conv2D)                                  13,107,712     smul_s8_s8 
110     153    eltwise_153 (Eltwise/add)                              51,200       op_s8_s8 
111     162    gemm_162 (Conv2D)                                  13,107,456     smul_s8_s8 
112     164    eltwise_164 (Eltwise/add)                              25,600       op_s8_s8 
113     165    eltwise_165 (Eltwise/add)                              25,600       op_s8_s8 
114     165    eltwise_165_0_0_re..conversion (Conversion)            51,200    smul_s8_f32 
115     166    reduce_166 (Reduce)                                    25,600   smul_f32_f32 
116     166    reduce_166_Mul (ScaleBias)                                200   smul_f32_f32 
117     166    reduce_166_Mul_0_1..conversion (Conversion)               200    smul_f32_s8 
118     166    reduce_166_Mul_0_1..conversion (Conversion)               200    smul_s8_f32 
119     167    eltwise_167 (Eltwise/squared_diff)                    128,000     op_f32_f32 
120     168    reduce_168 (Reduce)                                    25,600   smul_f32_f32 
121     168    reduce_168_Mul (ScaleBias)                                200   smul_f32_f32 
122     168    reduce_168_Mul_0_0..conversion (Conversion)               200    smul_f32_s8 
123     169    eltwise_169 (Eltwise/add)                                 100       op_s8_s8 
124     170    nl_170 (Nonlinearity)                                     100       op_s8_s8 
125     171    eltwise_171 (Eltwise/mul)                                 100       op_s8_s8 
126     173    eltwise_173 (Eltwise/mul)                                 100       op_s8_s8 
127     174    eltwise_174 (Eltwise/sub)                                 256       op_s8_s8 
128     172    eltwise_172 (Eltwise/mul)                              25,600       op_s8_s8 
129     175    eltwise_175 (Eltwise/add)                              25,600       op_s8_s8 
130     200    gemm_200 (Conv2D)                                   6,553,856     smul_s8_s8 
131     202    eltwise_202 (Eltwise/add)                              25,600       op_s8_s8 
132     204    transpose_204 (Transpose)                              12,800     smul_s8_s8 
133     204    transpose_204_0_1_..conversion (Conversion)            51,200    smul_s8_f32 
134     192    gemm_192 (Conv2D)                                   6,553,856     smul_s8_s8 
135     194    eltwise_194 (Eltwise/add)                              25,600       op_s8_s8 
136     196    transpose_196 (Transpose)                              12,800     smul_s8_s8 
137     196    transpose_196_0_0_..conversion (Conversion)            51,200    smul_s8_f32 
138     187    gemm_187 (Conv2D)                                   6,553,856     smul_s8_s8 
139     189    eltwise_189 (Eltwise/add)                              25,600       op_s8_s8 
140     197    transpose_bgemm_197_out (Transpose)                    12,800     smul_s8_s8 
141     197    transpose_bgemm_19..conversion (Conversion)            51,200    smul_s8_f32 
142     197    gemm_197 (Gemm)                                 1,024,040,000   smul_f32_f32 
143     197    gemm_197_0_0_eltwi..conversion (Conversion)            80,000    smul_f32_s8 
144     198    eltwise_198 (Eltwise/mul)                              40,000       op_s8_s8 
145     199    nl_199 (Nonlinearity)                                 600,000       op_s8_s8 
146     199    nl_199_0_0_gemm_205_conversion (Conversion)            80,000    smul_s8_f32 
147     205    gemm_205 (Gemm)                                 1,024,025,600   smul_f32_f32 
148     205    gemm_205_0_0_trans..conversion (Conversion)            51,200    smul_f32_s8 
149     206    transpose_206 (Transpose)                              12,800     smul_s8_s8 
150     216    gemm_216 (Conv2D)                                   6,553,856     smul_s8_s8 
151     218    eltwise_218 (Eltwise/add)                              25,600       op_s8_s8 
152     219    eltwise_219 (Eltwise/add)                              25,600       op_s8_s8 
153     219    eltwise_219_0_0_re..conversion (Conversion)            51,200    smul_s8_f32 
154     220    reduce_220 (Reduce)                                    25,600   smul_f32_f32 
155     220    reduce_220_Mul (ScaleBias)                                200   smul_f32_f32 
156     220    reduce_220_Mul_0_1..conversion (Conversion)               200    smul_f32_s8 
157     220    reduce_220_Mul_0_1..conversion (Conversion)               200    smul_s8_f32 
158     221    eltwise_221 (Eltwise/squared_diff)                    128,000     op_f32_f32 
159     222    reduce_222 (Reduce)                                    25,600   smul_f32_f32 
160     222    reduce_222_Mul (ScaleBias)                                200   smul_f32_f32 
161     222    reduce_222_Mul_0_0..conversion (Conversion)               200    smul_f32_s8 
162     223    eltwise_223 (Eltwise/add)                                 100       op_s8_s8 
163     224    nl_224 (Nonlinearity)                                     100       op_s8_s8 
164     225    eltwise_225 (Eltwise/mul)                                 100       op_s8_s8 
165     227    eltwise_227 (Eltwise/mul)                                 100       op_s8_s8 
166     228    eltwise_228 (Eltwise/sub)                                 256       op_s8_s8 
167     226    eltwise_226 (Eltwise/mul)                              25,600       op_s8_s8 
168     229    eltwise_229 (Eltwise/add)                              25,600       op_s8_s8 
169     238    gemm_238 (Conv2D)                                  13,107,712     smul_s8_s8 
170     240    eltwise_240 (Eltwise/add)                              51,200       op_s8_s8 
171     249    gemm_249 (Conv2D)                                  13,107,456     smul_s8_s8 
172     251    eltwise_251 (Eltwise/add)                              25,600       op_s8_s8 
173     252    eltwise_252 (Eltwise/add)                              25,600       op_s8_s8 
174     252    eltwise_252_0_0_re..conversion (Conversion)            51,200    smul_s8_f32 
175     253    reduce_253 (Reduce)                                    25,600   smul_f32_f32 
176     253    reduce_253_Mul (ScaleBias)                                200   smul_f32_f32 
177     253    reduce_253_Mul_0_1..conversion (Conversion)               200    smul_f32_s8 
178     253    reduce_253_Mul_0_1..conversion (Conversion)               200    smul_s8_f32 
179     254    eltwise_254 (Eltwise/squared_diff)                    128,000     op_f32_f32 
180     255    reduce_255 (Reduce)                                    25,600   smul_f32_f32 
181     255    reduce_255_Mul (ScaleBias)                                200   smul_f32_f32 
182     255    reduce_255_Mul_0_0..conversion (Conversion)               200    smul_f32_s8 
183     256    eltwise_256 (Eltwise/add)                                 100       op_s8_s8 
184     257    nl_257 (Nonlinearity)                                     100       op_s8_s8 
185     258    eltwise_258 (Eltwise/mul)                                 100       op_s8_s8 
186     260    eltwise_260 (Eltwise/mul)                                 100       op_s8_s8 
187     261    eltwise_261 (Eltwise/sub)                                 256       op_s8_s8 
188     259    eltwise_259 (Eltwise/mul)                              25,600       op_s8_s8 
189     262    eltwise_262 (Eltwise/add)                              25,600       op_s8_s8 
190     287    gemm_287 (Conv2D)                                   6,553,856     smul_s8_s8 
191     289    eltwise_289 (Eltwise/add)                              25,600       op_s8_s8 
192     291    transpose_291 (Transpose)                              12,800     smul_s8_s8 
193     291    transpose_291_0_1_..conversion (Conversion)            51,200    smul_s8_f32 
194     279    gemm_279 (Conv2D)                                   6,553,856     smul_s8_s8 
195     281    eltwise_281 (Eltwise/add)                              25,600       op_s8_s8 
196     283    transpose_283 (Transpose)                              12,800     smul_s8_s8 
197     283    transpose_283_0_0_..conversion (Conversion)            51,200    smul_s8_f32 
198     274    gemm_274 (Conv2D)                                   6,553,856     smul_s8_s8 
199     276    eltwise_276 (Eltwise/add)                              25,600       op_s8_s8 
200     284    transpose_bgemm_284_out (Transpose)                    12,800     smul_s8_s8 
201     284    transpose_bgemm_28..conversion (Conversion)            51,200    smul_s8_f32 
202     284    gemm_284 (Gemm)                                 1,024,040,000   smul_f32_f32 
203     284    gemm_284_0_0_eltwi..conversion (Conversion)            80,000    smul_f32_s8 
204     285    eltwise_285 (Eltwise/mul)                              40,000       op_s8_s8 
205     286    nl_286 (Nonlinearity)                                 600,000       op_s8_s8 
206     286    nl_286_0_0_gemm_292_conversion (Conversion)            80,000    smul_s8_f32 
207     292    gemm_292 (Gemm)                                 1,024,025,600   smul_f32_f32 
208     292    gemm_292_0_0_trans..conversion (Conversion)            51,200    smul_f32_s8 
209     293    transpose_293 (Transpose)                              12,800     smul_s8_s8 
210     303    gemm_303 (Conv2D)                                   6,553,856     smul_s8_s8 
211     305    eltwise_305 (Eltwise/add)                              25,600       op_s8_s8 
212     306    eltwise_306 (Eltwise/add)                              25,600       op_s8_s8 
213     306    eltwise_306_0_0_re..conversion (Conversion)            51,200    smul_s8_f32 
214     307    reduce_307 (Reduce)                                    25,600   smul_f32_f32 
215     307    reduce_307_Mul (ScaleBias)                                200   smul_f32_f32 
216     307    reduce_307_Mul_0_1..conversion (Conversion)               200    smul_f32_s8 
217     307    reduce_307_Mul_0_1..conversion (Conversion)               200    smul_s8_f32 
218     308    eltwise_308 (Eltwise/squared_diff)                    128,000     op_f32_f32 
219     309    reduce_309 (Reduce)                                    25,600   smul_f32_f32 
220     309    reduce_309_Mul (ScaleBias)                                200   smul_f32_f32 
221     309    reduce_309_Mul_0_0..conversion (Conversion)               200    smul_f32_s8 
222     310    eltwise_310 (Eltwise/add)                                 100       op_s8_s8 
223     311    nl_311 (Nonlinearity)                                     100       op_s8_s8 
224     312    eltwise_312 (Eltwise/mul)                                 100       op_s8_s8 
225     314    eltwise_314 (Eltwise/mul)                                 100       op_s8_s8 
226     315    eltwise_315 (Eltwise/sub)                                 256       op_s8_s8 
227     313    eltwise_313 (Eltwise/mul)                              25,600       op_s8_s8 
228     316    eltwise_316 (Eltwise/add)                              25,600       op_s8_s8 
229     325    gemm_325 (Conv2D)                                  13,107,712     smul_s8_s8 
230     327    eltwise_327 (Eltwise/add)                              51,200       op_s8_s8 
231     336    gemm_336 (Conv2D)                                  13,107,456     smul_s8_s8 
232     338    eltwise_338 (Eltwise/add)                              25,600       op_s8_s8 
233     339    eltwise_339 (Eltwise/add)                              25,600       op_s8_s8 
234     339    eltwise_339_0_0_re..conversion (Conversion)            51,200    smul_s8_f32 
235     340    reduce_340 (Reduce)                                    25,600   smul_f32_f32 
236     340    reduce_340_Mul (ScaleBias)                                200   smul_f32_f32 
237     340    reduce_340_Mul_0_1..conversion (Conversion)               200    smul_f32_s8 
238     340    reduce_340_Mul_0_1..conversion (Conversion)               200    smul_s8_f32 
239     341    eltwise_341 (Eltwise/squared_diff)                    128,000     op_f32_f32 
240     342    reduce_342 (Reduce)                                    25,600   smul_f32_f32 
241     342    reduce_342_Mul (ScaleBias)                                200   smul_f32_f32 
242     342    reduce_342_Mul_0_0..conversion (Conversion)               200    smul_f32_s8 
243     343    eltwise_343 (Eltwise/add)                                 100       op_s8_s8 
244     344    nl_344 (Nonlinearity)                                     100       op_s8_s8 
245     345    eltwise_345 (Eltwise/mul)                                 100       op_s8_s8 
246     347    eltwise_347 (Eltwise/mul)                                 100       op_s8_s8 
247     348    eltwise_348 (Eltwise/sub)                                 256       op_s8_s8 
248     346    eltwise_346 (Eltwise/mul)                              25,600       op_s8_s8 
249     349    eltwise_349 (Eltwise/add)                              25,600       op_s8_s8 
250     358    gemm_358 (Conv2D)                                   1,689,666     smul_s8_s8 
251     360    eltwise_360 (Eltwise/add)                               6,600       op_s8_s8 
------- ------ --------------------------------------------- --------------- -------------- 
total                                                          8,411,143,898 

Number of operation types
---------------- --------------- ----------- 
operation type                 #           % 
---------------- --------------- ----------- 
smul_s8_s8           211,616,850        2.5% 
op_s8_s8               3,954,248        0.0% 
smul_s8_f32            1,345,600        0.0% 
smul_f32_f32       8,192,675,200       97.4% 
smul_f32_s8              528,000        0.0% 
op_f32_f32             1,024,000        0.0% 

Complexity report (model)
------ ------------------------------------------ ------------------------- ------------------------- ------------------------- 
m_id   name                                       c_macc                    c_rom                     c_id                      
------ ------------------------------------------ ------------------------- ------------------------- ------------------------- 
0      serving_default_embedded_tokens0           |                  0.0%   |                  0.0%   [8]                       
1      tiny_bert_generator_tf___ope..___add_1_y   |                  0.0%   |||                1.2%   [9]                       
13     tiny_bert_generator_enc_0_mh..ot_MatMul1   |                  0.1%   ||||||||           3.1%   [18]                      
15     tiny_bert_generator_enc_0_mh..VariableOp   |                  0.0%   |                  0.0%   [19]                      
18     tiny_bert_generator_enc_0_mh..dot_MatMul   |                  0.1%   ||||||||           3.1%   [14]                      
20     tiny_bert_generator_enc_0_mh..VariableOp   |                  0.0%   |                  0.0%   [15]                      
22     transpose_22                               |                  0.0%   |                  0.0%   [16, 17]                  
23     gemm_23                                    ||||||||||||||||  12.2%   |                  0.0%   [7, 20, 21, 22, 23]       
24     tiny_bert_generator_enc_3_mh..3_mha_Sqrt   |                  0.0%   |                  0.0%   [24]                      
25     nl_25                                      |                  0.0%   |                  0.0%   [25, 26]                  
26     tiny_bert_generator_enc_0_mh..dot_MatMul   |                  0.1%   ||||||||           3.1%   [10]                      
28     tiny_bert_generator_enc_0_mh..VariableOp   |                  0.0%   |                  0.0%   [11]                      
30     transpose_30                               |                  0.0%   |                  0.0%   [12, 13]                  
31     gemm_31                                    |||||||||||||||   12.2%   |                  0.0%   [6, 27, 28]               
32     transpose_32                               |                  0.0%   |                  0.0%   [29]                      
42     tiny_bert_generator_enc_0_mh..dot_MatMul   |                  0.1%   ||||||||           3.1%   [30]                      
44     tiny_bert_generator_enc_0_mh..VariableOp   |                  0.0%   |                  0.0%   [31]                      
45     eltwise_45                                 |                  0.0%   |                  0.0%   [32, 33]                  
46     reduce_46                                  |                  0.0%   |                  0.0%   [34, 35, 36, 37]          
47     eltwise_47                                 |                  0.0%   |                  0.0%   [38]                      
48     reduce_48                                  |                  0.0%   |                  0.0%   [39, 40, 41]              
49     tiny_bert_generator_enc_0_ln..norm_add_y   |                  0.0%   |                  0.0%   [42]                      
50     nl_50                                      |                  0.0%   |                  0.0%   [43]                      
51     tiny_bert_generator_enc_0_ln..VariableOp   |                  0.0%   |                  0.0%   [44]                      
52     eltwise_52                                 |                  0.0%   |                  0.0%   [47]                      
53     eltwise_53                                 |                  0.0%   |                  0.0%   [45]                      
54     tiny_bert_generator_enc_0_ln..VariableOp   |                  0.0%   |                  0.0%   [46]                      
55     eltwise_55                                 |                  0.0%   |                  0.0%   [48]                      
64     tiny_bert_generator_enc_0_ff..dot_MatMul   |                  0.2%   ||||||||||||||||   6.2%   [49]                      
66     tiny_bert_generator_enc_0_ff..VariableOp   |                  0.0%   |                  0.0%   [50]                      
75     tiny_bert_generator_enc_0_ff..dot_MatMul   |                  0.2%   |||||||||||||||    6.1%   [51]                      
77     tiny_bert_generator_enc_0_ff..VariableOp   |                  0.0%   |                  0.0%   [52]                      
78     eltwise_78                                 |                  0.0%   |                  0.0%   [53, 54]                  
79     reduce_79                                  |                  0.0%   |                  0.0%   [55, 56, 57, 58]          
80     eltwise_80                                 |                  0.0%   |                  0.0%   [59]                      
81     reduce_81                                  |                  0.0%   |                  0.0%   [60, 61, 62]              
82     eltwise_82                                 |                  0.0%   |                  0.0%   [63]                      
83     nl_83                                      |                  0.0%   |                  0.0%   [64]                      
84     tiny_bert_generator_enc_0_ln..VariableOp   |                  0.0%   |                  0.0%   [65]                      
85     eltwise_85                                 |                  0.0%   |                  0.0%   [68]                      
86     eltwise_86                                 |                  0.0%   |                  0.0%   [66]                      
87     tiny_bert_generator_enc_0_ln..VariableOp   |                  0.0%   |                  0.0%   [67]                      
88     eltwise_88                                 |                  0.0%   |                  0.0%   [69]                      
100    tiny_bert_generator_enc_1_mh..dot_MatMul   |                  0.1%   ||||||||           3.1%   [78]                      
102    tiny_bert_generator_enc_1_mh..VariableOp   |                  0.0%   |                  0.0%   [79]                      
105    tiny_bert_generator_enc_1_mh..dot_MatMul   |                  0.1%   ||||||||           3.1%   [74]                      
107    tiny_bert_generator_enc_1_mh..VariableOp   |                  0.0%   |                  0.0%   [75]                      
109    transpose_109                              |                  0.0%   |                  0.0%   [76, 77]                  
110    gemm_110                                   ||||||||||||||||  12.2%   |                  0.0%   [5, 80, 81, 82, 83]       
111    eltwise_111                                |                  0.0%   |                  0.0%   [84]                      
112    nl_112                                     |                  0.0%   |                  0.0%   [85, 86]                  
113    tiny_bert_generator_enc_1_mh..dot_MatMul   |                  0.1%   ||||||||           3.1%   [70]                      
115    tiny_bert_generator_enc_1_mh..VariableOp   |                  0.0%   |                  0.0%   [71]                      
117    transpose_117                              |                  0.0%   |                  0.0%   [72, 73]                  
118    gemm_118                                   |||||||||||||||   12.2%   |                  0.0%   [4, 87, 88]               
119    transpose_119                              |                  0.0%   |                  0.0%   [89]                      
129    tiny_bert_generator_enc_1_mh..dot_MatMul   |                  0.1%   ||||||||           3.1%   [90]                      
131    tiny_bert_generator_enc_1_mh..VariableOp   |                  0.0%   |                  0.0%   [91]                      
132    eltwise_132                                |                  0.0%   |                  0.0%   [92, 93]                  
133    reduce_133                                 |                  0.0%   |                  0.0%   [94, 95, 96, 97]          
134    eltwise_134                                |                  0.0%   |                  0.0%   [98]                      
135    reduce_135                                 |                  0.0%   |                  0.0%   [99, 100, 101]            
136    eltwise_136                                |                  0.0%   |                  0.0%   [102]                     
137    nl_137                                     |                  0.0%   |                  0.0%   [103]                     
138    tiny_bert_generator_enc_1_ln..VariableOp   |                  0.0%   |                  0.0%   [104]                     
139    eltwise_139                                |                  0.0%   |                  0.0%   [107]                     
140    eltwise_140                                |                  0.0%   |                  0.0%   [105]                     
141    tiny_bert_generator_enc_1_ln..VariableOp   |                  0.0%   |                  0.0%   [106]                     
142    eltwise_142                                |                  0.0%   |                  0.0%   [108]                     
151    tiny_bert_generator_enc_1_ff..dot_MatMul   |                  0.2%   ||||||||||||||||   6.2%   [109]                     
153    tiny_bert_generator_enc_1_ff..VariableOp   |                  0.0%   |                  0.0%   [110]                     
162    tiny_bert_generator_enc_1_ff..dot_MatMul   |                  0.2%   |||||||||||||||    6.1%   [111]                     
164    tiny_bert_generator_enc_1_ff..VariableOp   |                  0.0%   |                  0.0%   [112]                     
165    eltwise_165                                |                  0.0%   |                  0.0%   [113, 114]                
166    reduce_166                                 |                  0.0%   |                  0.0%   [115, 116, 117, 118]      
167    eltwise_167                                |                  0.0%   |                  0.0%   [119]                     
168    reduce_168                                 |                  0.0%   |                  0.0%   [120, 121, 122]           
169    eltwise_169                                |                  0.0%   |                  0.0%   [123]                     
170    nl_170                                     |                  0.0%   |                  0.0%   [124]                     
171    tiny_bert_generator_enc_1_ln..VariableOp   |                  0.0%   |                  0.0%   [125]                     
172    eltwise_172                                |                  0.0%   |                  0.0%   [128]                     
173    eltwise_173                                |                  0.0%   |                  0.0%   [126]                     
174    tiny_bert_generator_enc_1_ln..VariableOp   |                  0.0%   |                  0.0%   [127]                     
175    eltwise_175                                |                  0.0%   |                  0.0%   [129]                     
187    tiny_bert_generator_enc_2_mh..dot_MatMul   |                  0.1%   ||||||||           3.1%   [138]                     
189    tiny_bert_generator_enc_2_mh..VariableOp   |                  0.0%   |                  0.0%   [139]                     
192    tiny_bert_generator_enc_2_mh..dot_MatMul   |                  0.1%   ||||||||           3.1%   [134]                     
194    tiny_bert_generator_enc_2_mh..VariableOp   |                  0.0%   |                  0.0%   [135]                     
196    transpose_196                              |                  0.0%   |                  0.0%   [136, 137]                
197    gemm_197                                   ||||||||||||||||  12.2%   |                  0.0%   [3, 140, 141, 142, 143]   
198    eltwise_198                                |                  0.0%   |                  0.0%   [144]                     
199    nl_199                                     |                  0.0%   |                  0.0%   [145, 146]                
200    tiny_bert_generator_enc_2_mh..dot_MatMul   |                  0.1%   ||||||||           3.1%   [130]                     
202    tiny_bert_generator_enc_2_mh..VariableOp   |                  0.0%   |                  0.0%   [131]                     
204    transpose_204                              |                  0.0%   |                  0.0%   [132, 133]                
205    gemm_205                                   |||||||||||||||   12.2%   |                  0.0%   [2, 147, 148]             
206    transpose_206                              |                  0.0%   |                  0.0%   [149]                     
216    tiny_bert_generator_enc_2_mh..dot_MatMul   |                  0.1%   ||||||||           3.1%   [150]                     
218    tiny_bert_generator_enc_2_mh..VariableOp   |                  0.0%   |                  0.0%   [151]                     
219    eltwise_219                                |                  0.0%   |                  0.0%   [152, 153]                
220    reduce_220                                 |                  0.0%   |                  0.0%   [154, 155, 156, 157]      
221    eltwise_221                                |                  0.0%   |                  0.0%   [158]                     
222    reduce_222                                 |                  0.0%   |                  0.0%   [159, 160, 161]           
223    eltwise_223                                |                  0.0%   |                  0.0%   [162]                     
224    nl_224                                     |                  0.0%   |                  0.0%   [163]                     
225    tiny_bert_generator_enc_2_ln..VariableOp   |                  0.0%   |                  0.0%   [164]                     
226    eltwise_226                                |                  0.0%   |                  0.0%   [167]                     
227    eltwise_227                                |                  0.0%   |                  0.0%   [165]                     
228    tiny_bert_generator_enc_2_ln..VariableOp   |                  0.0%   |                  0.0%   [166]                     
229    eltwise_229                                |                  0.0%   |                  0.0%   [168]                     
238    tiny_bert_generator_enc_2_ff..dot_MatMul   |                  0.2%   ||||||||||||||||   6.2%   [169]                     
240    tiny_bert_generator_enc_2_ff..VariableOp   |                  0.0%   |                  0.0%   [170]                     
249    tiny_bert_generator_enc_2_ff..dot_MatMul   |                  0.2%   |||||||||||||||    6.1%   [171]                     
251    tiny_bert_generator_enc_2_ff..VariableOp   |                  0.0%   |                  0.0%   [172]                     
252    eltwise_252                                |                  0.0%   |                  0.0%   [173, 174]                
253    reduce_253                                 |                  0.0%   |                  0.0%   [175, 176, 177, 178]      
254    eltwise_254                                |                  0.0%   |                  0.0%   [179]                     
255    reduce_255                                 |                  0.0%   |                  0.0%   [180, 181, 182]           
256    eltwise_256                                |                  0.0%   |                  0.0%   [183]                     
257    nl_257                                     |                  0.0%   |                  0.0%   [184]                     
258    tiny_bert_generator_enc_2_ln..VariableOp   |                  0.0%   |                  0.0%   [185]                     
259    eltwise_259                                |                  0.0%   |                  0.0%   [188]                     
260    eltwise_260                                |                  0.0%   |                  0.0%   [186]                     
261    tiny_bert_generator_enc_2_ln..VariableOp   |                  0.0%   |                  0.0%   [187]                     
262    eltwise_262                                |                  0.0%   |                  0.0%   [189]                     
274    tiny_bert_generator_enc_3_mh..dot_MatMul   |                  0.1%   ||||||||           3.1%   [198]                     
276    tiny_bert_generator_enc_3_mh..VariableOp   |                  0.0%   |                  0.0%   [199]                     
279    tiny_bert_generator_enc_3_mh..dot_MatMul   |                  0.1%   ||||||||           3.1%   [194]                     
281    tiny_bert_generator_enc_3_mh..VariableOp   |                  0.0%   |                  0.0%   [195]                     
283    transpose_283                              |                  0.0%   |                  0.0%   [196, 197]                
284    gemm_284                                   ||||||||||||||||  12.2%   |                  0.0%   [1, 200, 201, 202, 203]   
285    eltwise_285                                |                  0.0%   |                  0.0%   [204]                     
286    nl_286                                     |                  0.0%   |                  0.0%   [205, 206]                
287    tiny_bert_generator_enc_3_mh..dot_MatMul   |                  0.1%   ||||||||           3.1%   [190]                     
289    tiny_bert_generator_enc_3_mh..VariableOp   |                  0.0%   |                  0.0%   [191]                     
291    transpose_291                              |                  0.0%   |                  0.0%   [192, 193]                
292    gemm_292                                   |||||||||||||||   12.2%   |                  0.0%   [0, 207, 208]             
293    transpose_293                              |                  0.0%   |                  0.0%   [209]                     
303    tiny_bert_generator_enc_3_mh..dot_MatMul   |                  0.1%   ||||||||           3.1%   [210]                     
305    tiny_bert_generator_enc_3_mh..VariableOp   |                  0.0%   |                  0.0%   [211]                     
306    eltwise_306                                |                  0.0%   |                  0.0%   [212, 213]                
307    reduce_307                                 |                  0.0%   |                  0.0%   [214, 215, 216, 217]      
308    eltwise_308                                |                  0.0%   |                  0.0%   [218]                     
309    reduce_309                                 |                  0.0%   |                  0.0%   [219, 220, 221]           
310    eltwise_310                                |                  0.0%   |                  0.0%   [222]                     
311    nl_311                                     |                  0.0%   |                  0.0%   [223]                     
312    tiny_bert_generator_enc_3_ln..VariableOp   |                  0.0%   |                  0.0%   [224]                     
313    eltwise_313                                |                  0.0%   |                  0.0%   [227]                     
314    eltwise_314                                |                  0.0%   |                  0.0%   [225]                     
315    tiny_bert_generator_enc_3_ln..VariableOp   |                  0.0%   |                  0.0%   [226]                     
316    eltwise_316                                |                  0.0%   |                  0.0%   [228]                     
325    tiny_bert_generator_enc_3_ff..dot_MatMul   |                  0.2%   ||||||||||||||||   6.2%   [229]                     
327    tiny_bert_generator_enc_3_ff..VariableOp   |                  0.0%   |                  0.0%   [230]                     
336    tiny_bert_generator_enc_3_ff..dot_MatMul   |                  0.2%   |||||||||||||||    6.1%   [231]                     
338    tiny_bert_generator_enc_3_ff..VariableOp   |                  0.0%   |                  0.0%   [232]                     
339    eltwise_339                                |                  0.0%   |                  0.0%   [233, 234]                
340    reduce_340                                 |                  0.0%   |                  0.0%   [235, 236, 237, 238]      
341    eltwise_341                                |                  0.0%   |                  0.0%   [239]                     
342    reduce_342                                 |                  0.0%   |                  0.0%   [240, 241, 242]           
343    eltwise_343                                |                  0.0%   |                  0.0%   [243]                     
344    nl_344                                     |                  0.0%   |                  0.0%   [244]                     
345    tiny_bert_generator_enc_3_ln..VariableOp   |                  0.0%   |                  0.0%   [245]                     
346    eltwise_346                                |                  0.0%   |                  0.0%   [248]                     
347    eltwise_347                                |                  0.0%   |                  0.0%   [246]                     
348    tiny_bert_generator_enc_3_ln..VariableOp   |                  0.0%   |                  0.0%   [247]                     
349    eltwise_349                                |                  0.0%   |                  0.0%   [249]                     
358    tiny_bert_generator_output_d..dot_MatMul   |                  0.0%   ||                 0.8%   [250]                     
360    tiny_bert_generator_output_d..VariableOp   |                  0.0%   |                  0.0%   [251]                     
------ ------------------------------------------ ------------------------- ------------------------- ------------------------- 
macc=8,411,143,898 weights=2,154,368 act=545,056 ram_io=0

Generated files (7)
----------------------------------------------------------------------------------------------------------------------- 
C:\Users\drugm\stm32ai-modelzoo-services\text_generation\deployment\c_project\Middlewares\ST\AI\network_data_params.h   
C:\Users\drugm\stm32ai-modelzoo-services\text_generation\deployment\c_project\Middlewares\ST\AI\network_data_params.c   
C:\Users\drugm\stm32ai-modelzoo-services\text_generation\deployment\c_project\Middlewares\ST\AI\network_data.h          
C:\Users\drugm\stm32ai-modelzoo-services\text_generation\deployment\c_project\Middlewares\ST\AI\network_data.c          
C:\Users\drugm\stm32ai-modelzoo-services\text_generation\deployment\c_project\Middlewares\ST\AI\network_config.h        
C:\Users\drugm\stm32ai-modelzoo-services\text_generation\deployment\c_project\Middlewares\ST\AI\network.h               
C:\Users\drugm\stm32ai-modelzoo-services\text_generation\deployment\c_project\Middlewares\ST\AI\network.c               
